rl_agents/model/actor_model.pth (torch, 7063 bytes, 6 tensors)

linear1.weight f4 [32, 4]
-0.27079666 -0.2847498 0.29111505 -0.32615575 -0.2605344 0.2579458 -0.35787597 0.26110214
0.29053015 0.14707811 0.110896185 0.190651 0.3628804 0.028336657 -0.3427679 0.47391444
0.3483428 -0.027112754 -0.27166978 -0.17399447 -0.43072522 0.34757304 -0.0718216 0.32396913
0.16875674 -0.093653314 -0.31534338 0.16755494 -0.31465563 -0.115787275 0.27006772 -0.28685418
-0.037119187 -0.07725674 0.057352453 0.4941746 0.29052028 -0.18998305 0.4088681 -0.1784873
0.20030105 0.21102798 -0.027147336 -0.47718775 0.45808595 -0.108689755 0.3076851 -0.3228249
-0.06603708 0.41503632 -0.43395326 0.03099725 -0.024412248 -0.4248409 -0.062144037 -0.4501267
0.12660283 0.10199201 0.27769423 -0.0035216876 -0.22831163 -0.18873785 -0.19058053 0.3878467
0.14437385 -0.5117102 0.08585965 -0.05988634 0.3551672 -0.1413189 0.46752965 0.1614751
-0.45816544 0.100242026 -0.10151517 0.25696787 -0.45099407 -0.056185838 0.35431492 0.19469261
0.23630673 0.41541177 0.22896703 0.17733838 0.1174828 0.045791376 0.43015286 -0.1277082
0.068385854 0.027041987 -0.14069459 0.3514993 0.039013814 -0.41100308 0.34024745 -0.1759577
0.047450338 -0.45006093 0.19715741 -0.35007796 -0.0773616 0.41435593 0.118201 0.43040192
-0.2815939 -0.47780883 -0.4049653 -0.16429488 -0.15652859 -0.04240637 0.29260728 0.4481094
-0.47167745 -0.27260053 0.4339172 -0.09196576 -0.12955958 -0.48203653 -0.09431406 -0.46232983
0.43381616 -0.2112466 -0.1574802 0.07701133 0.23506793 0.44301835 -0.07607963 -0.3728057
00000000: dca5 8abe baca 91be 080d 953e e3fd a6be
00000010: c464 85be 7911 843e 853b b7be 2eaf 853e
00000020: 5ec0 943e a59b 163e 8a1d e33d 043a 433e
00000030: 76cb b93e 4722 e83c 467f afbe eaa4 f23e
00000040: fd59 b23e 911b debc 4d18 8bbe 9b2b 32be
00000050: 0488 dcbe 18f5 b13e 3417 93bd 48df a53e
00000060: 91ce 2c3e 4fcd bfbd b074 a1be 8693 2b3e
00000070: 8b1a a1be e121 edbd 5146 8a3e 8dde 92be
00000080: 4a0a 18bd c838 9ebd 68ea 6a3d 7404 fd3e
00000090: 13bf 943e eb8a 42be 2957 d13e 60c5 36be
000000a0: b81b 4d3e b817 583e 1764 debc f451 f4be
000000b0: 3e8a ea3e bc98 debd e788 9d3e 4e49 a5be
000000c0: 733e 87bd a47f d43e 1f2f debe f2ed fd3c
000000d0: 32fc c7bc bf84 d9be bf8a 7ebd 0277 e6be
000000e0: 2ca4 013e 30e1 d03d f02d 8e3e 1dcc 66bb
000000f0: 86ca 69be 7f44 41be 8b27 43be d893 c63e
00000100: bdd6 133e 71ff 02bf 2fd7 af3d 614b 75bd
00000110: 7ad8 b53e e7b5 10be 0c60 ef3e bb59 253e
00000120: a994 eabe b14b cd3d 2fe7 cfbd 4b91 833e
00000130: b2e8 e6be 1f23 66bd c468 b53e 805d 473e
00000140: 64fa 713e dab0 d43e 5576 6a3e 3198 353e
00000150: d29a f03d bd8f 3b3d ff3c dc3e f0c5 02be
00000160: e20d 8c3d 2887 dd3c 3e12 10be b7f7 b33e
00000170: f3cc 1f3d ff6e d2be ea34 ae3e 412e 34be
00000180: 495b 423d 636e e6be a2e3 493e 6b3d b3be
00000190: c26f 9ebd 7626 d43e 5e13 f23d a45d dc3e
000001a0: 132d 90be 5ca3 f4be 9d57 cfbe eb3c 28be
000001b0: 0849 20be 4db2 2dbd 9fd0 953e 986e e53e
000001c0: b57f f1be 4c92 8bbe 652a de3e 8b58 bcbd
000001d0: 44ab 04be 7ecd f6be bb27 c1bd 7fb6 ecbe
000001e0: 271d de3e 0751 58be 7d42 21be 1eb8 9d3d
000001f0: a6b5 703e 4dd3 e23e a3cf 9bbd 64e0 bebe

linear1.bias f4 [32]
0.43910122 -0.09317439 0.1881585 -0.37031984 -0.33574346 -0.05262121 -0.17255853 0.0073560355
0.18293858 0.033900335 -0.21871889 -0.0073996703 0.39051363 0.4246336 0.40520182 0.3222935
0.27673078 0.49112037 -0.45703194 -0.41819274 0.2952571 0.4708075 -0.36703902 0.21754725
-0.2589667 -0.07938209 0.4760487 -0.29228967 0.23714365 0.34825283 0.23806791 -0.33479005
00000000: e0d1 e03e 37d2 bebd 9fac 403e 909a bdbe
00000010: 91e6 abbe 5789 57bd 2fb3 30be e60a f13b
00000020: 4054 3b3e 14db 0a3d d8f7 5fbe ef78 f2bb
00000030: 67f1 c73e 9369 d93e 9d76 cf3e a703 a53e
00000040: a8af 8d3e 2174 fb3e 1700 eabe 5c1d d6be
00000050: f02b 973e ae0d f13e 8aec bbbe b5c4 5e3e
00000060: 4997 84be 1493 a2bd a8bc f33e fea6 95be
00000070: c9d5 723e 324e b23e 13c8 733e 9a69 abbe

linear2.weight f4 [32, 32]
0.06528757 -0.15205833 -0.10495866 -0.09640506 0.12027551 0.06551189 0.16032065 0.13321805
-0.061425265 0.18270123 -0.12558694 -0.042060025 -0.032761592 0.08184168 -0.07087307 -0.14238295
0.111900896 0.14634944 0.10826611 0.10989802 -0.054355714 -0.05239789 -0.1541983 0.010088372
0.11697685 0.091499195 0.15865658 -0.13520765 -0.14915268 0.093861066 0.17282505 -0.07018398
0.03894242 0.052419182 0.09508752 0.037951846 -0.14213714 -0.01488132 0.100068875 0.0114942305
-0.11977985 -0.10948274 -0.056265738 0.14535259 0.030927204 0.13905023 0.021184409 0.11650256
0.024721976 0.12600994 0.16021256 -0.13650195 -0.13017647 -0.06189075 0.008828459 -0.048124764
-0.15017924 0.010102782 0.12357323 -0.12559538 0.04998999 -0.10537638 0.092932366 -0.024731344
0.123933926 0.091462225 -0.1496691 0.13706167 -0.13666794 -0.024832726 0.08889838 0.088409565
-0.15399113 0.016157825 -0.050847117 -0.023793496 -0.15350184 0.059648264 0.1299357 0.062439702
0.052567855 -0.12803677 -0.089927614 0.04378209 0.047919486 -0.11833418 -0.17168579 -0.0149029195
-0.033045884 0.0494154 0.0029238453 -0.11921675 -0.05590015 -0.034801707 -0.17283973 0.11938016
0.13754521 -0.12948926 0.082385965 -0.08500732 0.03584536 -0.10924118 -0.10250012 -0.122020185
0.082826875 -0.10604613 -0.033926908 0.11431053 -0.055659804 0.16844615 0.09197244 0.082178496
0.09110267 -0.0712488 -0.027134888 0.048294175 -0.10051967 0.13944735 -0.09721172 -0.0071788863
-0.09028459 -0.05893533 0.17892365 0.18432793 -0.08958104 0.08573052 0.016465822 -0.026061535
-0.07698743 -0.025062978 0.08630879 0.070584714 0.0055805594 -0.13672915 0.03672889 0.10729356
-0.01834774 0.094791785 -0.08211687 -0.0060412586 0.11681782 -0.08280659 -0.054012008 -0.01547651
-0.17372623 0.07993518 -0.13295531 0.013183981 -0.13472743 -0.08104917 -0.120464645 0.16952811
0.018282399 -0.1317611 0.16416706 -0.11528701 -0.08900013 0.021145627 -0.16367008 0.028374106
0.10767332 0.18730961 -0.1151508 0.16181399 -0.13462083 0.043488648 0.12953232 0.047338936
0.15441148 0.16709708 -0.085441515 -0.10533764 0.123376936 0.05223057 -0.104938366 0.0021222427
0.029175699 0.097507454 -0.0019400122 -0.018712044 0.0029959513 -0.1301295 -0.041706204 -0.16743325
0.020464169 0.022873225 0.16247271 -0.015978321 -0.021942932 -0.10598499 -0.16644152 -0.1589411
0.017785698 0.101034924 -0.04331468 0.12635641 0.0433951 -0.07615134 0.12968595 -0.102832735
0.063866265 0.17584746 0.06291725 0.091116 -0.06803733 -0.0021803137 -0.14191146 0.14895424
0.058484633 -0.038103707 -0.13236488 -0.02805091 0.096793786 0.13762885 -0.0070113945 -0.11660937
-0.16696759 0.1767553 0.0139506245 0.06211775 -0.11757217 -0.088630274 -0.14523534 0.13603325
-0.17044596 -0.120923 0.111781076 -0.16766602 0.11732281 -0.13580659 0.07541425 -0.07472223
0.036846485 0.05593871 -0.09518634 -0.09648224 0.1663373 0.092230044 0.17389694 0.13386726
-0.08286021 0.14911503 -0.085762665 -0.08682801 0.009966834 -0.03441309 -0.006328035 0.16174263
-0.06092397 0.068879545 -0.10922932 -0.14021623 0.14676301 0.026773516 0.16718857 0.026192171
00000000: 7db5 853d 2eb5 1bbe 91f4 d6bd 0470 c5bd
00000010: 0253 f63d 192b 863d 192b 243e 506a 083e
00000020: 0f99 7bbd 0816 3b3e dd99 00be 2247 2cbd
00000030: 0531 06bd 9c9c a73d e625 91bd d6cc 11be
00000040: 4c2c e53d a1dc 153e 9fba dd3d 3712 e13d
00000050: 19a4 5ebd 2b9f 56bd 29e6 1dbe b349 253c
00000060: 8f91 ef3d ee63 bb3d df76 223e e073 0abe
00000070: 7bbb 18be 3b3a c03d 0df9 303e 9ebc 8fbd
00000080: 1682 1f3d 7fb5 563d 3fbd c23d 6573 1b3d
00000090: 668c 11be c8d0 73bc e9f0 cc3d 4c52 3c3c
000000a0: 234f f5bd 7d38 e0bd e776 66bd 4fd7 143e
000000b0: 0c5b fd3c 2f63 0e3e ed8a ad3c e598 ee3d
000000c0: be85 ca3c c008 013e c30e 243e 2bc7 0bbe
000000d0: fb4c 05be 2881 7dbd 3ea5 103c 791e 45bd
000000e0: 96c8 19be 2486 253c f613 fd3d 139c 00be
000000f0: 4ec2 4c3d 92cf d7bd 5353 be3d 6399 cabc
00000100: 12d1 fd3d 8c50 bb3d db42 19be e559 0c3e
00000110: aef2 0bbe 006e cbbc 5b10 b63d 1310 b53d
00000120: daaf 1dbe 6a5d 843c 1145 50bd 94ea c2bc
00000130: 962f 1dbe bd51 743d dd0d 053e c6c0 7f3d
00000140: 6451 573d 121c 03be f82b b8bd d954 333d
00000150: 3947 443d 3159 f2bd 66ce 2fbe 602b 74bc
00000160: 1f5b 07bd cd67 4a3d fc9d 3f3b e927 f4bd
00000170: 8ef7 64bd 3c8c 0ebd e6fc 30be 967d f43d
00000180: a7d8 0c3e d598 04be f9b9 a83d 5118 aebd
00000190: 96d2 123d d7b9 dfbd 95eb d1bd b8e5 f9bd
000001a0: 23a1 a93d b72e d9bd f1f6 0abd a41b ea3d
000001b0: 89fb 63bd 267d 2c3e 0c5c bc3d 334d a83d
000001c0: 0994 ba3d e4ea 91bd fc49 debc 1dd0 453d
000001d0: 42dd cdbd 49cb 0e3e f016 c7bd dd3c ebbb
000001e0: 21e7 b8bd 2c66 71bd c337 373e 76c0 3c3e
000001f0: 4476 b7bd 7c93 af3d 55e3 863c 007f d5bc
00000200: 96ab 9dbd e050 cdbc aac2 b03d b88e 903d
00000210: 20dd b63b ba02 0cbe 0871 163d babc db3d
00000220: 004e 96bc 3222 c23d e42c a8bd c0f5 c5bb
00000230: 2e3e ef3d 8096 a9bd b23b 5dbd 3091 7dbc
00000240: 4ae5 31be 0eb5 a33d 7025 08be a001 583c
00000250: fdf5 09be 1bfd a5bd 2bb6 f6bd c798 2d3e
00000260: f8c4 953c 62ec 06be 691b 283e 991b ecbd
00000270: b345 b6bd 9839 ad3c 2199 27be d070 e83c
00000280: d483 dc3d 17ce 3f3e 2fd4 ebbd 91b2 253e
00000290: 0bda 09be 2721 323d 1fa4 043e 79e6 413d
000002a0: 0b1e 1e3e 7f1b 2b3e f6fb aebd 43bb d7bd
000002b0: 0cad fc3d b9ef 553d ede9 d6bd 5315 0b3b
000002c0: e001 ef3c fdb1 c73d 0248 feba 004a 99bc
000002d0: b957 443b ab40 05be 20d4 2abd 9f73 2bbe
000002e0: 79a4 a73c a160 bb3c 3f5f 263e f8e4 82bc
000002f0: aac1 b3bc a90e d9bd a56f 2abe 75c1 22be
00000300: 50b3 913c 66eb ce3d bc6a 31bd 9363 013e
00000310: 0fbf 313d 3cf5 9bbd 65cc 043e f899 d2bd
00000320: 51cc 823d 5b11 343e c2da 803d 079b ba3d
00000330: 2857 8bbd 98e3 0ebb 3d51 11be 7687 183e
00000340: 958d 6f3d a212 1cbd a98a 07be 06cb e5bc
00000350: d23b c63d 94ee 0c3e d7bf e5bb e5d0 eebd
00000360: 8df9 2abe 57ff 343e 2991 643c 2f6f 7e3d
00000370: aec9 f0bd ca83 b5bd 93b8 14be 4d4c 0b3e
00000380: 6389 2ebe 7aa6 f7bd 7aed e43d a4b0 2bbe
00000390: f146 f03d e210 0bbe c972 9a3d f807 99bd
000003a0: 57ec 163d fd1f 653d 0ef1 c2bd 7b98 c5bd
000003b0: 5354 2a3e 1be3 bc3d 0a12 323e 8014 093e
000003c0: 9db2 a9bd 9cb1 183e 56a4 afbd e2d2 b1bd
000003d0: ef4b 233c bef4 0cbd 685b cfbb dc9f 253e
000003e0: 6a8b 79bd b810 8d3d 9fb3 dfbd d894 0fbe
000003f0: 0b49 163e 2254 db3c 7b33 2b3e f790 d63c

linear2.bias f4 [32]
-0.1648907 -0.14129987 0.13443822 0.07884443 -0.16547221 -0.0127023095 -0.08955481 0.045965053
0.10184847 0.05200393 0.09431773 -0.0625453 -0.011287148 -0.11665498 -0.17544824 -0.017009318
-0.1040679 0.1149058 -0.099169165 0.1719736 0.13580377 -0.06421286 0.033806846 0.0631953
-0.17777064 0.09335893 -0.006659651 -0.046084132 -0.102775685 -0.05804632 -0.17702797 -0.12071743
00000000: 1cd9 28be eab0 10be 2caa 093e 3079 a13d
00000010: 8c71 29be 591d 50bc 8368 b7bd da45 3c3d
00000020: ee95 d03d 1302 553d a729 c13d c017 80bd
00000030: bbed 38bc cee8 eebd b4a8 33be 2057 8bbc
00000040: 8d21 d5bd bb53 eb3d 3419 cbbd d919 303e
00000050: 2510 0b3e 0882 83bd 0c79 0a3d 8a6c 813d
00000060: 8209 36be f732 bf3d 3439 dabb b7c2 3cbd
00000070: 0f7c d2bd fac1 6dbd d246 35be b33a f7bd

linear3.weight f4 [2, 32]
0.086955905 0.060390864 0.17507869 0.15891963 0.099266335 0.15001287 0.08691323 0.0017034283
0.0317972 0.020798188 0.12833495 0.07237171 0.0012887726 0.072403714 -0.118704416 -0.15841205
0.0027767 -0.16193 0.094096825 -0.15547355 -0.10856017 -0.15883397 0.08533005 -0.1149842
-0.10039867 0.06255203 0.14955643 0.18014982 -0.019891359 -0.16502568 0.072069 -0.13016082
-0.03519641 -0.054611396 0.07447333 0.01489928 -0.10920461 -0.16528422 -0.09240207 0.12352525
0.11913196 0.01054065 0.15406118 -0.069986224 -0.033811405 -0.061816093 -0.09955219 0.16945414
0.11157967 0.08350938 -0.12135663 0.018856185 -0.08945711 -0.118850246 -0.16685194 -0.09532963
-0.0022705025 -0.12286664 -0.15913858 -0.009146085 -0.105287194 -0.019842407 0.013543159 0.05278976
00000000: f015 b23d 695c 773d d447 333e d4bb 223e
00000010: 264c cb3d f99c 193e 90ff b13d 9245 df3a
00000020: c83d 023d f660 aa3c 3d6a 033e 9e37 943d
00000030: 08ec a83a 6648 943d 4d1b f3bd c536 22be
00000040: 4cf9 353b fad0 25be d6b5 c03d 7534 1fbe
00000050: cb54 debd 5fa5 22be 85c1 ae3d d67c ebbd
00000060: d19d cdbd 471b 803d 5225 193e 3279 383e
00000070: 34f3 a2bc 7efc 28be e998 933d e148 05be
00000080: 1c2a 10bd 33b0 5fbd 7985 983d 1c1c 743c
00000090: aba6 dfbd 4440 29be 4c3d bdbd cefa fc3d
000000a0: 75fb f33d b1b2 2c3c 37c2 1d3e f054 8fbd
000000b0: d47d 0abd df32 7dbd 05e2 cbbd 6385 2d3e
000000c0: e283 e43d f706 ab3d d389 f8bd 4978 9a3c
000000d0: 4a35 b7bd c267 f3bd 3cdb 2abe 2e3c c3bd
000000e0: b6cc 14bb 81a1 fbbd 39f5 22be 76d9 15bc
000000f0: d0a0 d7bd 8b8c a2bc 20e4 5d3c 133a 583d

linear3.bias f4 [2]
0.036764845 -0.12243404
00000000: bc96 163d b3be fabd
