rl_agents/model/critic_model.pth (torch, 6935 bytes, 5 tensors)

linear1.weight f4 [32, 4]
000000 6b 5c cf be 6d 59 26 bf 0e a0 4e 3e 38 92 47 3f
       -0.40500197 -0.649802 0.20178244 0.7795749
000010 92 94 0a bf 97 18 aa bd 4d 2b 11 3e ef a9 54 3f
       -0.5413295 -0.083054714 0.14176674 0.830718
000020 23 00 e8 be e5 00 37 3e e4 f6 9c 3d f7 f2 f4 3e
       -0.45312604 0.17871435 0.07664278 0.47841617
000030 4e 7e 15 bf b7 92 40 bf 01 de 90 3e 0b cb 3f 3f
       -0.5839585 -0.7522387 0.28294376 0.74919194
000040 f7 3d c5 bd 25 10 7b bd 64 dd 24 bf b7 61 45 bf
       -0.096309595 -0.061294693 -0.64400315 -0.77102226
000050 fb f5 44 be e3 f9 c3 bc 0c 15 c9 be 7c c5 d6 3e
       -0.19234459 -0.023922866 -0.3927387 0.41947544
000060 a6 9a 7d 3e f4 26 d2 3e 11 56 57 3e 68 db 02 bf
       0.24766025 0.41045344 0.21028925 -0.5111604
000070 f5 cd 53 3e 91 98 5b be b6 63 b7 be f3 94 2d 3f
       0.20684035 -0.21444918 -0.3581826 0.67805403
000080 7d f3 86 3e 3b 15 17 bf c7 2c 3d 3d 86 b0 3a 3f
       0.26357642 -0.5901677 0.04618528 0.72925603
000090 95 38 07 be e3 8c a4 bd 39 d0 0b bf ba 75 d2 bd
       -0.13205178 -0.080346845 -0.546146 -0.10276361
0000a0 bc 24 f6 be 1d 55 ee be 6b b4 6c 3e 90 52 11 3f
       -0.480749 -0.4654931 0.23115699 0.56766605
0000b0 e5 e2 b6 be 3d 3e d1 be db 54 11 be d1 94 3e 3f
       -0.35719982 -0.40867797 -0.14192526 0.74445826
0000c0 96 07 14 bd 28 1a 1d 3f f0 e0 b0 3d 80 f7 18 bf
       -0.036140047 0.61368036 0.086366534 -0.59752655
0000d0 37 8c a7 be b2 20 a7 be 54 6d e1 bc 51 5f 58 3e
       -0.32724163 -0.32642132 -0.027517952 0.2113011
0000e0 21 fc c3 3e 03 b7 f7 be 83 be ad be b8 54 ee bd
       0.38278297 -0.48381814 -0.3393441 -0.116372526
0000f0 72 4f 32 be dc 10 68 be 40 95 c6 3d 20 f6 db 3e
       -0.17413118 -0.22662681 0.09696436 0.42961216
000100 cf 40 f2 be 5a 43 24 3e 9b 64 31 3e dc 22 10 bf
       -0.4731507 0.16041318 0.17323534 -0.5630319
000110 6d 2c 8b 3e 91 d1 18 bf ef 54 75 bc 11 c6 40 3f
       0.27182332 -0.5969477 -0.014973863 0.75302225
000120 a2 cb af bd 42 cf 34 bf d6 a1 ea be 43 4f c1 3e
       -0.08583762 -0.7062875 -0.45826596 0.37755784
000130 37 e8 ad 3e 4a 24 4f 3e da 79 53 3e 37 50 dd be
       0.33966228 0.20228687 0.20651951 -0.43225262
000140 fe f0 13 be 3e 3e 53 be b3 7b fa 3d a3 de 2a 3f
       -0.144474 -0.20629212 0.12230625 0.66745967
000150 80 9f 21 3e 11 bb 54 3e df d0 7d be e2 92 fa be
       0.157835 0.20774485 -0.24786709 -0.48940188
000160 18 e3 65 3e fa d0 16 3e ca 86 e3 3d 94 26 37 3f
       0.2244991 0.14728156 0.11109693 0.7154324
000170 5c 59 a3 be 2d e8 a7 be 27 7f dc bc 7f a8 27 3f
       -0.31904113 -0.32794324 -0.0269161 0.6549148
000180 de 20 ab be 84 cc 29 3f 58 c7 19 bd 75 00 37 bf
       -0.33423513 0.6632769 -0.037543625 -0.7148507
000190 45 ef ad 3d c6 fb 2d bf c8 f7 22 bf 89 3a ab bd
       0.08492903 -0.679623 -0.63659334 -0.08360774
0001a0 7a e1 fc be d4 77 02 bf d7 2b 78 be 42 2f 24 be
       -0.49390775 -0.50964093 -0.24235474 -0.16033652
0001b0 d5 58 e4 be 91 f9 21 bf 90 ff e2 3d 2a c7 0f 3f
       -0.44599023 -0.63271433 0.11083901 0.56163275
0001c0 21 53 da 3e 6a 27 b7 3e 15 2e 44 be fc 11 fd be
       0.42641547 0.35772258 -0.19158204 -0.49427783
0001d0 46 9f c3 3e 1d 96 9b 3e d2 97 f9 be ff 96 f7 be
       0.38207453 0.30387965 -0.48748642 -0.48357388
0001e0 c3 8d 79 be 39 a9 8a be be 0e 81 be 0c f3 67 bc
       -0.24370484 -0.27082232 -0.2520656 -0.014157068
0001f0 e9 83 8b be 84 c2 c3 3d 87 93 02 3e 99 64 33 3f
       -0.27249077 0.09558585 0.1275159 0.70075375

linear1.bias f4 [32]
000000 ca 28 89 3e 98 e2 9d 3c a2 13 28 3f ff c0 58 3e
       0.26788932 0.019273087 0.6565496 0.21167372
000010 f1 b6 a8 3e 3d 65 07 3f be d1 cf 3e 4b 3c 0b 3f
       0.32952073 0.5288885 0.40589708 0.54388875
000020 ea 03 8a 3e b2 ff b2 3e c7 38 df 3e 7a 0d 0b 3f
       0.2695611 0.34960705 0.43598005 0.5431744
000030 6d dd 00 3f 2d f2 c6 3e c7 9c 19 3f 88 ac b9 3e
       0.5033787 0.3885664 0.6000485 0.36264443
000040 fc 93 08 3f 39 ea 97 3e 55 31 e3 3e ec 2b 40 3f
       0.53350806 0.29670885 0.44373575 0.7506702
000050 a3 2f 5a 3c 3c 76 2e 3f 49 cb 89 3e 79 84 2e 3f
       0.013317022 0.6814916 0.26912907 0.6817089
000060 7a 1e e6 3e 5e 5c 02 bc 82 5a 3c 3f 6d a5 32 bc
       0.44945127 -0.007956592 0.73575604 -0.010903698
000070 84 85 4d 3f a2 37 c0 3e 4c 8d 0c 3f e2 c2 79 3e
       0.80281854 0.37542444 0.549031 0.24390748

linear2.weight f4 [32, 32]
000000 b8 04 8b bc ae 5d d0 3d 15 90 b6 bd 2c 5c 0d be
       -0.016970024 0.10174118 -0.089142 -0.13804692
000010 e1 fa 4b 3d e5 11 f7 3b be 55 18 3d d8 64 2b 3d
       0.049799804 0.007539975 0.037191145 0.04184422
000020 98 a0 92 bc 43 51 a0 3d a9 ba 6a bd a6 97 f4 bd
       -0.017898843 0.078279994 -0.05730692 -0.11942987
000030 54 d2 09 bc 00 40 07 3e 6d 6e 84 3d 41 d6 63 bb
       -0.008411963 0.13208008 0.064663745 -0.0034765156
000040 8a 7c 36 3c 33 74 64 bd e9 2b 00 3e 3a 09 f7 bd
       0.011138091 -0.05577488 0.1251675 -0.12062307
000050 5d 46 2c 3e 7e 9f a3 3c f8 fe 9b bc ae 77 03 be
       0.16823716 0.019973513 -0.019042477 -0.12838623
000060 0d a7 d6 3d 5f 50 35 be 9f e9 bc bd dd 71 87 bd
       0.10481081 -0.1770644 -0.09224247 -0.066135146
000070 a4 73 c1 bd 10 48 a5 3c 2c da 4d be 1c 2c 1a 3b
       -0.09445885 0.020175964 -0.20102757 0.0023524826
000080 da 6b 50 bd 45 5a 32 3d 23 b3 87 3d 37 67 41 be
       -0.050884105 0.04354312 0.066259645 -0.1888703
000090 47 eb 0c be a9 17 f2 bd 62 4a 90 bd bd ca 36 bd
       -0.13761626 -0.11820919 -0.070454374 -0.04462694
0000a0 b1 d0 89 bd a9 a6 aa 3d 87 17 bf 3d d2 63 38 be
       -0.06729258 0.08332569 0.09330659 -0.18006828
0000b0 40 83 4f be 29 6b 15 be a3 37 3b be ba be 07 3e
       -0.20264912 -0.1459166 -0.18282942 0.1325635
0000c0 ed 3e 01 3e 51 a9 09 3e 58 a2 ae 3c 61 d9 d0 3d
       0.1262166 0.13443495 0.021317646 0.10197712
0000d0 2f dc 0e 3e 85 ed d4 3d ab 94 b2 bd 09 ed 4a be
       0.13951181 0.10396866 -0.087197624 -0.19816984
0000e0 80 66 e1 bd c8 67 0c be d3 0b 5b bd 14 6d e0 bd
       -0.110058784 -0.13711464 -0.053478073 -0.10958305
0000f0 a7 71 db bb ed ce d2 bc d2 7f 90 bd fa d9 06 3e
       -0.006696898 -0.025733436 -0.0705563 0.13169089
000100 cf fb 24 be 78 5a 3f be 06 25 87 3d b0 00 74 3d
       -0.16111682 -0.18686855 0.065988585 0.05957097
000110 61 3f 21 be eb a6 1b be 3b ff a5 3c 8f 39 ac 3d
       -0.15746833 -0.15200393 0.020263305 0.08409416
000120 45 f8 c7 3c b7 0c 4e bb 34 64 0c 3e bb d7 5c bd
       0.024410376 -0.0031440684 0.137101 -0.053916674
000130 f6 23 4f 3d 13 fc a9 3d c6 68 b9 bd e2 28 35 be
       0.050571404 0.083000325 -0.09053187 -0.17691377
000140 93 12 fa 3d c3 74 a5 3c 55 3c 50 bc 86 86 f1 bd
       0.12210574 0.020197278 -0.012709697 -0.117932364
000150 64 a9 bb bd f0 3d 4e bd 5f eb 2c be 46 88 63 3d
       -0.09163168 -0.050352037 -0.16886662 0.055549882
000160 59 fe aa 3d 80 df 6e ba 00 e0 4a 3d 9e 30 b4 3d
       0.08349294 -0.00091122836 0.04953003 0.087983355
000170 23 13 aa 3d c6 c1 f6 bd c3 d0 d9 3d c5 1a ef bd
       0.08304431 -0.12048678 0.10635521 -0.11675028
000180 b4 2a bc 3c c1 e9 16 be b8 ab 3a 3d 6d 90 34 bd
       0.022969581 -0.14737608 0.04557392 -0.044083048
000190 d0 12 1f be c8 70 76 bd cd 56 a2 3d fc 1e 10 3d
       -0.1553452 -0.06016615 0.07926712 0.0351858
0001a0 dc 04 15 be 40 62 dc bd 41 39 09 be 2a 48 e0 3d
       -0.14552635 -0.10760927 -0.13400747 0.10951264
0001b0 45 c7 b4 3b 54 84 4b 3c 57 f6 99 3d d7 9c 66 bd
       0.005516919 0.012421686 0.07517689 -0.056301918
0001c0 87 f6 31 be 38 22 60 3d f2 d5 b7 bc 3a 9d 0b be
       -0.17379199 0.054720134 -0.022440884 -0.13634196
0001d0 f0 74 d8 bc 09 07 a6 3d f2 7b e4 bd 9c ad b5 3c
       -0.026422948 0.081068106 -0.11156453 0.02217751
0001e0 3d 15 9b 3d 9f a1 8d bd 99 03 2d 3e 0e 11 e7 3d
       0.0757241 -0.069155924 0.16895904 0.1128255
0001f0 25 85 2b 3c d9 15 53 3d a9 7e 39 be 05 21 e4 bb
       0.010468756 0.051534507 -0.18114723 -0.006961944
000200 4c bc 26 3e 78 04 5f 3e 10 75 25 3e 5b 58 3b 3e
       0.16282767 0.21779048 0.16157937 0.18295424
000210 e7 24 44 3e 58 26 a8 3e 4c ba ec 3d c9 c2 ba 3e
       0.19154702 0.32841754 0.11558971 0.36476734
000220 f4 67 a8 3e 44 58 a5 3e d8 25 82 3d 98 53 5b 3e
       0.3289181 0.32293904 0.06354874 0.21418607
000230 fb 2c 0e 3d a2 ba d4 3d ca fd 27 3e d9 d3 99 3e
       0.034710865 0.1038716 0.16405407 0.3004444
000240 6f 9e 9f 3d 20 bc a0 3e 95 ef a2 3e e0 f2 b1 3e
       0.07793891 0.31393528 0.31823412 0.3475561
000250 3b 23 ab 3e ba c9 58 3e 50 a0 6a 3e 67 14 2e 3e
       0.33425316 0.21170703 0.22912717 0.1699997
000260 7b 2f 9f 3d fe 52 9f 3d 21 4a ae 3e af b5 95 3e
       0.07772728 0.077795014 0.3404093 0.29240176
000270 7e b2 00 3d 39 f3 33 3e 6f a9 b5 3e 22 21 f9 3d
       0.031420223 0.17573251 0.3548083 0.12164523
000280 ba 3f 85 3d 24 86 45 be 94 7a 64 3d 82 81 4a 3d
       0.065062955 -0.19289452 0.055780962 0.049439915
000290 50 cd a9 3d 9f e2 a4 bc 01 dd cd 3d a9 24 3a 3c
       0.082911134 -0.020127593 0.10051919 0.0113612795
0002a0 e4 09 8b 3d ee 12 53 3d b7 32 d4 3d ae ae 04 3d
       0.06788996 0.051531725 0.103612356 0.03239315
0002b0 4a ec 08 be 26 53 1f be ed c8 41 bd 2f c2 40 be
       -0.13371387 -0.15559062 -0.04731076 -0.18824075
0002c0 37 e2 f1 bd c6 07 45 be f5 c0 6b bd 35 8e aa 3d
       -0.11810725 -0.19241247 -0.057557065 0.08327905
0002d0 0c fa 0d bd 58 8e 15 be 89 ad 76 3d 92 b1 34 be
       -0.03466229 -0.14605081 0.06022409 -0.17645863
0002e0 7b 5d 21 be 4f ea e6 bc 14 fd d6 3d 13 df ef bd
       -0.15758316 -0.028187899 0.104974896 -0.1171247
0002f0 c2 a3 df 3c 44 7e 34 bd bc 09 3c bc 18 b7 30 be
       0.027299765 -0.04406573 -0.01147693 -0.17257345
000300 52 c2 8a 3e 4c d7 cb 3e 69 58 a0 3e 36 c3 32 3e
       0.2710138 0.39812696 0.31317452 0.1745728
000310 aa 32 10 3e d9 1d ad 3e d2 40 cb 3e cf 14 e7 3e
       0.14081827 0.33811834 0.3969789 0.45133063
000320 b7 0e b0 3e 8d 73 e9 3e a8 4b a7 3e 1d f9 11 3e
       0.34386227 0.4559597 0.3267491 0.14255185
000330 0e f6 97 3e ab 28 da 3e cb a2 01 3e 2c 82 71 3e
       0.29679912 0.42609152 0.12659757 0.23584813
000340 c8 20 4e 3e 56 09 a1 3e 19 dd 91 3e d8 4e 20 3e
       0.20129693 0.31452435 0.28488997 0.15655077
000350 f4 3c ec 3e e4 51 e1 3e 37 66 d0 3e 59 53 2f 3e
       0.46140254 0.4400779 0.40702984 0.17121638
000360 24 42 13 3e f9 c3 af 3e 38 49 c1 3e 6e d4 20 3e
       0.143807 0.34329203 0.37751174 0.15706035
000370 79 bb b7 3e 9b 90 d0 3e c3 d4 c7 3e 25 93 8a 3e
       0.35885218 0.40735325 0.39029512 0.27065387
000380 89 c5 b4 bd 32 45 07 bd ab 41 e2 3d fd f5 07 3e
       -0.08826739 -0.033024974 0.110476814 0.13277431
000390 db 70 a8 bd 2b 83 09 3e 72 15 08 be de 19 25 be
       -0.082246505 0.13428943 -0.1328943 -0.16123149
0003a0 fa 27 43 bd b2 ca 7c 3d 71 51 9a bd 63 d4 6e bd
       -0.047645546 0.061716743 -0.07535065 -0.058308017
0003b0 d6 23 d8 bd 97 bf 48 3d e3 28 1d bd 8a 08 67 3d
       -0.1055371 0.04901084 -0.03836907 0.056404628
0003c0 f9 8f 3f be c0 b0 9d bd 86 08 8d 3d 67 91 35 be
       -0.18707265 -0.07699728 0.06886391 -0.17731248
0003d0 dd a6 2e be 0b db 34 bd 25 9c aa bd e8 78 a0 bc
       -0.17055841 -0.04415421 -0.083305635 -0.019588903
0003e0 01 f6 61 3d 23 b4 c5 3d ad 61 8d bd 24 09 2e 3d
       0.05516625 0.09653499 -0.06903396 0.042489186
0003f0 03 97 38 be a7 a4 05 3e 7b 30 d8 bd 6f cf 4f 3d
       -0.18026356 0.13051091 -0.10556122 0.050734933

linear2.bias f4 [32]
000000 ca 9a 18 3c 6d 92 e5 3d 18 3b 0e be 97 2b 15 be
       0.009314248 0.11209569 -0.1388973 -0.1456741
000010 43 23 18 3e 0e 53 2e 3d a8 21 5c 3e 7e d4 9e 3d
       0.14857201 0.042559676 0.21497214 0.077553734
000020 a2 db db 3e de ce e7 3e 63 c2 a7 3d 4e a4 9f 3e
       0.42941004 0.45275015 0.08191373 0.31180042
000030 ae 94 21 be 37 7c cc 3e 29 88 ea 3c 70 6f f7 3d
       -0.15779373 0.39938518 0.02862938 0.12081802
000040 90 8d 5d 3d 74 2c e3 3e a5 76 bd bd 65 e5 76 3e
       0.054090083 0.44369853 -0.09251145 0.24110945
000050 f6 bc 5f 3e d6 f6 2f 3e f0 22 d6 3e 3a 0d ea 3e
       0.21849427 0.17184004 0.4182353 0.45713216
000060 1b 85 11 3e 54 2b 07 3e 9f 24 d3 3d 0f 69 cb bd
       0.14210932 0.13200122 0.10309719 -0.09932148
000070 3c f1 e3 3e 57 28 ef 3d e4 06 6d bd 3b 3e 3f 3e
       0.44519985 0.11677616 -0.0578679 0.18676083

linear3.weight f4 [1, 32]
000000 c6 12 fe bc 4a e6 03 be d3 aa 12 be 5b 7b b4 bd
       -0.031014811 -0.12880817 -0.14322977 -0.08812591
000010 de 1f 77 3e cd 94 00 be 59 97 d6 3e ac 06 8e bb
       0.2413325 -0.12556763 0.41912344 -0.0043342914
000020 cb e9 ff 3e cb c9 d9 3e 6d 2b c1 bd 8e a9 cf 3e
       0.49983057 0.42536768 -0.09432111 0.40559047
000030 d5 bd 0d be ae 13 cb 3e a3 0c 45 bd c1 e2 9c bd
       -0.13841946 0.39663452 -0.048107754 -0.076604374
000040 4f f0 98 bd 4c 98 ac 3e 60 f2 b6 bd 22 f4 bc 3e
       -0.0746771 0.33709943 -0.08932948 0.3690501
000050 5e a9 e5 3e a7 5c b6 3e 9d 34 e5 3e 28 c7 ce 3e
       0.4485578 0.35617563 0.44766703 0.4038632
000060 31 61 c7 3e a0 ab c7 bd 7c 18 fa 3e 5d 6e b5 bd
       0.3894134 -0.09749532 0.48846805 -0.08858941
000070 14 ab c2 3e 51 55 a2 3e 26 7f d4 3d 31 97 f9 3e
       0.38021147 0.31705716 0.10375814 0.48748162
