rl_agents/model/model_weights.pth (torch, 710789 bytes, 28 tensors)

input_layer.0.weight f4 [128, 4]
00000000: 162b a4bd 793e 8dbe 76da 7abe 6dbf abbe
00000010: 3e46 17bd b698 c43e cd52 49be e086 c23e
00000020: 6a90 ce3e b578 6e3e 66e2 2d3f a1a9 8a3e
00000030: d436 f03e 31e0 4d3c 98cb 8dbc 2db7 c53e
00000040: 4c46 ca3e ca3b dcbd 7e3b 53bf dab7 52be
00000050: 9d1a 33bf 31ec 823e 4d6f f73d 9949 bc3e
00000060: 7a59 463e e3e5 0bbe 216a a5be 8b5d 553e
00000070: 03ef 9ebd 0cb9 cbbd 6596 ddbe 93bc acbe
00000080: d804 0abe 1614 dbbd 3e64 f33e fc6e be3e
00000090: 026d 373e 7014 47be 3341 823f 0f8a 65be
000000a0: 5c9e ab3e fb65 803e 9973 d53c 9eff 0dbf
000000b0: 3d19 0040 7a9c e5bd 9f51 dc3e cf22 9abe
000000c0: ba38 a03e 62fd d63e fee5 26bf e4ff 5f3e
000000d0: c5c1 603e 489a eabe b77c 34bf 42f5 e9be
000000e0: 2447 d93d 0abc a73d 416e 923e abca 243c
000000f0: ebab 5cbe 1d65 3dbe aa1e 963d 9cd0 983e
00000100: bbe8 3a3e e87a fbbe 1689 733e 534b 3dbe
00000110: 4d49 873e e861 e7bd 6f7a 953f 76b2 553e
00000120: f6ad e9be 54d9 823e 76fd 043f 083e 3c3e
00000130: b389 e9be 5a9c c83d 0a8e 743f 82c1 d83d
00000140: 5a34 a33e 6434 083f 7122 933e eb80 523e
00000150: 0472 933e c572 7e3a 2f31 b73e c0d8 4abd
00000160: 6b6a d8bd a08a 94ba cbb2 923e 9ca3 c23e
00000170: ab45 babd 4749 e8be edbf 743d 7ab0 25be
00000180: ae35 573e 9535 e9be be86 c9bd e97f a7be
00000190: 486d a8bd bee8 213f b0fb 3a3f 94f0 ca3e
000001a0: 8b99 79be eed7 f4be 11dd 4cbf efea 04be
000001b0: b744 d2be 03e6 5bbd 9c5b e23e a967 a33e
000001c0: 9f5e 03bf 98e8 74be a10a 5d3f 2de9 fdbd
000001d0: d3f1 2abe 6dc9 fdbe acec d8be fe62 cabe
000001e0: 05b7 f93e 927f 85be e778 29be 50bb ff3c
000001f0: 2bbe 823e b258 fc3e 3c38 cbbd b1da ecbe
00000200: a9c5 193f 6d9c 99be 0f0b f9bd 76e1 bebe
00000210: 056d b5be fada 4bbd 4989 40be 0207 cb3d
00000220: 88f4 403e 70e0 483d 9ce9 5dbe c021 40bc
00000230: 3dfc ec3d 9f22 9f3e b03e 833f 9c11 ea3e
00000240: b5a2 123f 4274 023f 415d 5abf 9dda b7be
00000250: 5542 0b3f b35a ed3e 14c8 aebe 1561 a53e
00000260: c747 5dbe f1ec abbd 253a 7a3f a61a 53be
00000270: dc3b 203f a4d1 db3e f537 a83e 3ab6 c8be
00000280: 7127 8c3e 6068 e8be 42dd 1ebf 0585 86be
00000290: bff3 c93e 5d26 a43d 4731 943f 39b9 5e3e
000002a0: af4d 3c3c 67ac 0b3f 1140 78bf 759b 79be
000002b0: 37ce 9b3e 16e5 3c3e 933f 99be 9f52 d9be
000002c0: 637f 7d3e 9fb1 ad3e f023 9a3e 8ebb bc3e
000002d0: 7f58 40bc 4c03 08be 7d2c 71bf 0054 903c
000002e0: ecbc cb3e 4bb6 733d 4b4f f73e a6bf 85bd
000002f0: 789a e9be b88a 653e 2b61 8c3f e6d5 aabd
00000300: da9e 703d 443c e53d 095c 6b3e 3007 2f3d
00000310: 7194 02bf 0b64 5f3c 474a 5a3f 37ec 6abd
00000320: 8758 6fbe 75cb 1ebe 7caf e53e 8c9e a43e
00000330: 50a1 a0bd 3c37 fd3e 6d82 423f 48a8 b63e
00000340: 474a de3e abc1 e43e c554 4e3f 913c 08bf
00000350: 7815 bebe c396 92be b4e8 97be db2e 73be
00000360: 3cee 7bbe 9494 913d 3706 733e d584 e0be
00000370: 8ca8 88bd 67ba a8be 6fcd 803d 8f30 06be
00000380: 1731 633f baf7 6f3e 067b b0be 6bce f33e
00000390: 024f 2abf ab48 5ebd 24c3 f23e 00a6 193d
000003a0: 16b4 58be 21ab 43bd 0be1 79bf 2cf6 59bd
000003b0: 7443 16bf 6722 263e 26a1 273f 3027 203e
000003c0: 0f41 863e d0ad 89be 8c9a cabe 175b 363c
000003d0: 9fa3 3a3e 97d2 b4be 0c7a adbe f14e 0fbb
000003e0: 5e30 b3bb 498d ef3d 9705 17be 83c3 69be
000003f0: 1eff c7bc 3f83 0c3d 7ed5 22bf bdda 4d3e
-0.080160305 -0.27586725 -0.24497399 -0.33544484 -0.036932223 0.3839776 -0.19660492 0.37993526
0.40344554 0.23288234 0.6792358 0.27082542 0.4691683 0.012565658 -0.017308995 0.38616315
0.39506757 -0.10753591 -0.8251265 -0.20577946 -0.69962484 0.25570825 0.12081776 0.367749
0.1937007 -0.13661914 -0.32307532 0.20836465 -0.077604316 -0.09947404 -0.43278804 -0.3373762
-0.1347841 -0.106971905 0.47537416 0.3719405 0.17912677 -0.1944139 1.0176147 -0.22415946
0.33519256 0.25077805 0.026056098 -0.55468166 2.0015404 -0.11211486 0.43031022 -0.30104682
0.3129328 0.4199019 -0.6519469 0.21874958 0.21948917 -0.45820832 -0.705028 -0.4569493
0.10609272 0.081901625 0.28599742 0.010058085 -0.21549957 -0.18495603 0.073300675 0.29846656
0.18252842 -0.49117208 0.23782763 -0.18485765 0.26423112 -0.11297971 1.1677989 0.20868859
-0.45640534 0.25556433 0.5194925 0.18383038 -0.4561287 0.09795447 0.95529234 0.10583784
0.3187588 0.5320494 0.28737214 0.20556991 0.28797925 0.0009706433 0.35779712 -0.049523115
-0.105671726 -0.0011332817 0.28652033 0.3801545 -0.09095319 -0.45368406 0.059753347 -0.16180602
0.21016571 -0.45548692 -0.09840153 -0.32714775 -0.08223969 0.6324576 0.73040295 0.39636672
-0.24374978 -0.4782099 -0.8002482 -0.12980245 -0.4106805 -0.053686153 0.44210517 0.31915024
-0.51316255 -0.23916852 0.86344343 -0.123979904 -0.16693811 -0.49567738 -0.42368066 -0.3952865
0.48772445 -0.2607389 -0.16550027 0.031217247 0.25535712 0.4928642 -0.09922835 -0.46260598
0.6006723 -0.30002156 -0.121603124 -0.37281388 -0.35434738 -0.04976938 -0.1880237 0.09913446
0.18843281 0.049042165 -0.21671146 -0.011726797 0.11571548 0.310811 1.0253506 0.4571656
0.5727952 0.50958645 -0.85298544 -0.35908976 0.5439809 0.4635826 -0.34137022 0.3230063
-0.21609412 -0.08394802 0.9774497 -0.20615634 0.6259134 0.4293338 0.32855192 -0.39201528
0.2737384 -0.45392132 -0.6205636 -0.2627336 0.39443776 0.0801513 1.1577538 0.21750344
0.011493131 0.5455994 -0.9697276 -0.24375708 0.30430767 0.18446764 -0.29931316 -0.42445847
0.24755625 0.33924577 0.30105543 0.36861843 -0.011739849 -0.13282508 -0.9420851 0.01761818
0.39792573 0.05950002 0.48302683 -0.06530695 -0.45625663 0.22416198 1.0967153 -0.08341579
0.058745243 0.111931354 0.22984327 0.042731464 -0.51007754 0.013634692 0.8526959 -0.05735418
-0.23373614 -0.155073 0.44860446 0.32152212 -0.07843268 0.49456203 0.75980264 0.35675263
0.43416044 0.44679007 0.805981 -0.53217417 -0.37125754 -0.28630647 -0.29669726 -0.23748343
-0.24602598 0.07108417 0.2373284 -0.43851343 -0.06672773 -0.32954714 0.06289183 -0.13104461
0.8874678 0.23434344 -0.3446886 0.47618422 -0.66526806 -0.05426852 0.47414505 0.037511826
-0.21162447 -0.047770623 -0.97609013 -0.053213283 -0.58696675 0.16224061 0.6548027 0.15639949
0.2622151 -0.2689042 -0.39571035 0.011130116 0.18226479 -0.35316917 -0.33882177 -0.002186712
-0.0054684123 0.1169687 -0.14748226 -0.22828488 -0.024413642 0.034304854 -0.63607013 0.20102973

input_layer.0.bias f4 [128]
00000000: 3fd7 63be 56a7 573e 22da d23e 88aa f13d
00000010: 12eb 8f3c 2279 aabe 4088 3fbc ec70 1e3d
00000020: 6b92 82bd 8094 0e3e f0f6 92bd fb20 7cbd
00000030: 4f62 d23e 002e 4dbe 28bb cabe dd4b e9bd
00000040: a899 e6be 11c1 f5bd 9ced 883e e35e c43e
00000050: 34a4 cd3d 6858 7bbe 70c6 93be 79b0 c3be
00000060: 6711 913e 7c56 303e 8511 19bd 1b58 efbe
00000070: 18a9 d73d 5427 cabe e3cb c4bc bbf0 95bd
00000080: 0a4c 24bb e020 5abe 562d febe 391b 6abd
00000090: 2777 f03d 6ffc e53e fce4 3d3e efef adbe
000000a0: 4b8b bc3e 25a2 573e 0ef2 adbe 2ad9 8cbd
000000b0: 1955 c5be e25a 693e e471 963e 6eb1 943e
000000c0: 61f6 e9be 8bcf 943e 0711 a93d 310d 033e
000000d0: eab0 f1be 6e06 c0bc 73bc b0be f9e2 4bbe
000000e0: 5542 2c3b 05da 85be 4357 17bd 284e 223d
000000f0: 8f93 f63d 3901 b7be b6f2 f83e c01b 393d
00000100: 2ac6 fcbe 55b4 753e 81a2 dd3e 1ccd 06bf
00000110: d87a a53e beed 0a3f d0f9 f7be 9fa5 423c
00000120: 540b ccbe 858a e4be b542 2f3e 0bdf bd3e
00000130: d251 503e 19c3 0abf db9a c13d 3049 e5be
00000140: cc03 c23d fd89 e0be 3d77 9bbd 14d6 5d3d
00000150: 395d 933e 50d2 d0bd 7528 4d3e f80d b7be
00000160: c05d 17be 9918 bdbe 43e4 ee3d 4bc4 423c
00000170: 9d63 8c3e b027 373e ba83 d13e e7d2 d7be
00000180: c3c5 10be a9d4 28bd c419 973d dacb d9be
00000190: 7cb7 ff3e d79f 1c3e c74f a6bd 6ec9 0c3e
000001a0: dc0a 03be 18df d7be 4e11 4d3e 3dc9 ccbe
000001b0: c18a 2d3e f474 763e 62fb efbe df53 dc3c
000001c0: 1c05 b0be b930 f03e ad9c f83e 4c44 03be
000001d0: bd13 87bc 9fe3 aabe e52a 9ebd 919b d9bd
000001e0: 6c0a 8a3e b035 efbe 3c23 a1be ef99 693e
000001f0: cbc7 a8be 488c 8a3e 4d27 d03c 3662 8b3e
-0.22250079 0.21059927 0.41182047 0.118001044 0.017568145 -0.33295542 -0.011690199 0.03868191
-0.06375583 0.13923836 -0.07176006 -0.06155489 0.41090629 -0.20037079 -0.39595914 -0.11391423
-0.45039105 -0.11999715 0.26743782 0.38353643 0.10041085 -0.24545443 -0.28862333 -0.38220575
0.2833359 0.17220491 -0.037370224 -0.46746907 0.10530299 -0.3948313 -0.024023002 -0.07321306
-0.0025069737 -0.21301603 -0.49643964 -0.057154868 0.117414765 0.44919154 0.18544382 -0.33972117
0.36825022 0.21057947 -0.33973736 -0.06877358 -0.38541487 0.22788575 0.29383767 0.29041618
-0.45695785 0.29064593 0.08255201 0.12798001 -0.47205287 -0.023440566 -0.34518775 -0.19910802
0.0026284654 -0.26142898 -0.036948454 0.039625317 0.12039863 -0.3574312 0.48622674 0.04519248
-0.49369937 0.23994572 0.43288043 -0.5265672 0.32320285 0.54269016 -0.4843278 0.011880307
-0.39852393 -0.44636932 0.1711529 0.3708423 0.20343712 -0.54203945 0.094533645 -0.447824
0.094733804 -0.43855277 -0.07591102 0.05415924 0.2878206 -0.10196364 0.20034964 -0.35752845
-0.14781857 -0.3693283 0.11664631 0.01188762 0.2741975 0.17886233 0.40920812 -0.42153093
-0.1413794 -0.041218434 0.07377961 -0.4253834 0.49944675 0.15295349 -0.08120685 0.13748714
-0.12797111 -0.42162395 0.20026132 -0.39997283 0.16947462 0.24068052 -0.46871477 0.026895462
-0.34378898 0.46912172 0.48557034 -0.12819022 -0.016488904 -0.33376786 -0.07723025 -0.10625375
0.26961076 -0.46720648 -0.31472194 0.22812627 -0.3296493 0.2706015 0.025409365 0.27223366

feature_layers.0.weight f4 [128, 128]
00000000: b9a1 f2bd 3d94 fe3d 6706 163d 3a72 343d
00000010: 5e55 73be 9ed1 09be 3aba b93d 7f49 9bbe
00000020: 3444 46bd a94a 9e3d 821a 39be 148b bf3e
00000030: bad1 dabc 71c8 adbe c06c 39bc f3d8 bbbd
00000040: a195 25bd 781f 6abd 6467 5fbc 4177 dc3c
00000050: f057 10bf 2dec 15bc d0dd b8bb a441 b2be
00000060: 91ac 37bd 7f9e f93d 5f33 e6bd 3ced f4bd
00000070: da69 64bd 2f27 10be aaa1 0b3e b8c3 18bd
00000080: 28bd 863d 5de4 d0be 783d a4bc 717b e0bd
00000090: c642 02bf 3452 1b3e 25af 0e3d 82dc 513d
000000a0: 5a6f 183d 7994 e73d 722b a3bc 19aa b3bd
000000b0: bae2 4bbc c23d 50bd d229 cd3d d7c1 a53d
000000c0: 1b9a 26bd b2ba 013d 65e8 493c 2a18 b43c
000000d0: f7a4 b6ba ac2d 4dbf 9d56 82bc 120c 83bd
000000e0: d138 cabc 4bb2 e8bd 4c99 04bf 079c 673d
000000f0: acdb 533d 5d55 7abe 91ef 543a aad6 513d
00000100: 7800 66bc 2a31 13be 2a25 eb3c 184f 92bd
00000110: f0a9 ffbc 16d5 943d 4618 c53d 8c99 edbd
00000120: b451 3ebe ce29 443d c752 583c 30e0 7a3d
00000130: 3ca0 12be beee 6ebc 1aac 1dbc d80a 553c
00000140: b019 3c3e fc70 053d 5c86 2bbe d93c 1dbe
00000150: 0ac3 5c3b 6516 cabd 9ea3 2b3e 4850 d0bc
00000160: 0c53 75be 8474 04bd daab cdbe d6dd e03c
00000170: 9dff ecbc 5634 1fbd f2d1 12bd 6301 c2bd
00000180: 5ffd f8be 1202 07be 0b5b ecbe cdb2 a0be
00000190: 471b 07be aaa2 a9bc 4582 18bd ad2a d3bb
000001a0: ee45 40bd 7338 19bd d688 b6bd bdd8 16be
000001b0: 4d5f 133d ad98 803d 3c46 0fbd 8eb5 b13d
000001c0: 94f9 2a3d 69e6 443c be3a debd 0063 0c3d
000001d0: b2b0 22be e69c 48be 4da5 ae3c ece0 97bd
000001e0: 56c1 3dbd ca5f a1bd 793e d93d 6a46 0b3e
000001f0: 7a3e edbc 8bdb be3d 3748 d1be c379 ec3c
00000200: 2180 923d 022e 74bd 25a9 1b3e 76b4 973d
00000210: d861 153d 2046 303e 1769 143d 7443 803d
00000220: 0ab3 22bb dd65 813e 126a 4f3d f78c 833e
00000230: e408 acbd b069 883e c50a 883d 19ac 163d
00000240: 2cad 4f3e 1c02 283e ded8 cb3a 29b3 a5bd
00000250: a9b7 94bd 5ca4 333d b434 aa3d 1ef4 d23d
00000260: fa25 d53c 54af da3c 5a1d 07be 242a 323e
00000270: ab9c 413d 1d18 a33d b339 b53c 99b8 b33d
00000280: 3887 ab3d 6800 b83b 8880 abbc 757c 903e
00000290: 7fc5 9d3d 6125 71bd fa7e 2ebd 5eb3 b03d
000002a0: aeaa 82bd ff4b 213d e0f9 babd 543a abbc
000002b0: bd85 d9bc 2fb1 0bbe ce00 5bbd 773a a7bd
000002c0: b9b5 14bd 0517 163c fadd 85bc b5a9 653c
000002d0: 9dec 3ebc 89e0 7c3a 88c2 9c3d bcfc 653d
000002e0: 1db2 46bc 10da df3c 66c1 a73d 3f21 64bc
000002f0: 83bf e9bd 30c7 c43d 423f 8bbd b016 083d
00000300: c852 c53c 798a f6bb 3f07 b8bc 27c9 a13b
00000310: a51d 36bd 54fb 5fbe 3276 233e 5292 44bd
00000320: 314d e93d f1e1 e3bc 93e4 c9bd 80a1 29bd
00000330: 3121 e6bd 9cf0 603d 9cc2 773d 8acb 6fbc
00000340: cc3a 62bd 17be 273e 2317 603d 9341 de3d
00000350: dd8c 013c 7d71 bc3d 78c5 de3d d6af bf3e
00000360: cd50 433c 208c 2c3e 6fa5 f6bd a479 a7bc
00000370: e297 5bbe 958c 92bd 86bf 97bd 041e f1bb
00000380: a843 c43c 9c66 603e b981 a1bd 0123 403e
00000390: 6077 a7bd 291f b13d 4a50 9ebd 8337 a53e
000003a0: 8e92 f93d 8998 ac3d 8198 43bd 3fb8 ab3d
000003b0: f5ee c8bd 061c 4abe 0d6f 813d 14eb 63bd
000003c0: 625a 863e ae18 62be 269e c73c b67c 233e
000003d0: c38d 39bd 31b3 033e c510 2c3d 408d 53bb
000003e0: faf8 85bc e90a 2bbc bad3 ce3e 28f8 bb3c
000003f0: 86a4 3e3d 0d67 0f3b 33bb 16be 4b18 afbc
-0.118472524 0.12430618 0.0366272 0.044054247 -0.23763034 -0.13458869 0.09068723 -0.3032951
-0.048404887 0.07729084 -0.18076518 0.37410796 -0.026711334 -0.33941987 -0.011317432 -0.09172239
-0.0404259 -0.057158917 -0.01363549 0.026912333 -0.5638418 -0.009150547 -0.0056416765 -0.34815705
-0.044842307 0.12188434 -0.11240267 -0.11959311 -0.05576501 -0.14077447 0.13635889 -0.037296027
0.065790474 -0.40799227 -0.020048842 -0.109610446 -0.5088314 0.15168077 0.034835 0.051235683
0.037215568 0.11307616 -0.019918177 -0.08772678 -0.012444193 -0.050840147 0.10017742 0.08093613
-0.04067431 0.031672187 0.012323474 0.021984179 -0.0013934661 -0.80147815 -0.015910441 -0.063987866
-0.024685295 -0.11362132 -0.5179641 0.056545284 0.051723167 -0.24446626 0.00081228564 0.05123011
-0.014038198 -0.14374223 0.028704245 -0.07143992 -0.031208962 0.072672054 0.096237704 -0.11601552
-0.18585855 0.04789143 0.013203329 0.061248958 -0.14318937 -0.014583288 -0.009623552 0.013003074
0.18369174 0.032578453 -0.16750473 -0.15355243 0.0033685588 -0.09867553 0.16761634 -0.025428906
-0.23957461 -0.03233768 -0.40170175 0.02744953 -0.02893048 -0.03886827 -0.03584475 -0.09472921
-0.48630807 -0.13184384 -0.4616321 -0.31386414 -0.13193999 -0.020707447 -0.03723361 -0.0064442963
-0.04694169 -0.03740735 -0.08912818 -0.14731117 0.035979558 0.062791206 -0.03497909 0.08677207
0.041741922 0.012017825 -0.10851048 0.0342741 -0.15887716 -0.19591102 0.021319056 -0.07415947
-0.046326958 -0.078795984 0.10607619 0.1360108 -0.028960455 0.09319218 -0.40875408 0.028866654
0.07153345 -0.05961419 0.15201242 0.07407467 0.036470264 0.1721425 0.036233034 0.06262866
-0.0024825954 0.25273028 0.050638266 0.25693485 -0.08400133 0.26643133 0.06642679 0.03678522
0.20280904 0.16407055 0.0015552302 -0.08090813 -0.07261593 0.043857917 0.083108336 0.10300468
0.026019085 0.026694931 -0.1319479 0.17398888 0.04726855 0.079635836 0.02212224 0.087754436
0.083754 0.005615283 -0.020935312 0.28219953 0.07703685 -0.058873538 -0.042601563 0.086279616
-0.06380211 0.039379116 -0.09129691 -0.020901836 -0.02655303 -0.13641809 -0.053467564 -0.08165448
-0.036306117 0.009160762 -0.016341198 0.014017512 -0.011653093 0.00096464955 0.076542914 0.05614923
-0.012127426 0.02732566 0.08191185 -0.013923942 -0.11413481 0.096083045 -0.06799175 0.03322476
0.024087325 -0.0075238314 -0.022464393 0.0049373093 -0.044461865 -0.21873218 0.15963057 -0.047991104
0.11391676 -0.027817698 -0.0985805 -0.041413784 -0.112367995 0.054916963 0.06048833 -0.01463593
-0.055231854 0.16381107 0.054709565 0.10852351 0.00790712 0.09201334 0.10877508 0.3743884
0.01192112 0.16850328 -0.12043273 -0.020443745 -0.21444657 -0.0715572 -0.07409577 -0.0073583145
0.023958042 0.21914142 -0.07886071 0.18763353 -0.08177066 0.086485215 -0.07730158 0.32268915
0.12186156 0.08427531 -0.04775286 0.083847515 -0.098112024 -0.19737253 0.063200094 -0.05564411
0.26240832 -0.22079727 0.024367403 0.15965542 -0.04530121 0.12861325 0.04200818 -0.0032280236
-0.016354073 -0.010439613 0.4039591 0.022945479 0.04654362 0.0021881491 -0.14719848 -0.021373888

feature_layers.0.bias f4 [128]
00000000: e8ad cd3d c45a 14be 5d51 6abd 46cf 913d
00000010: b177 b13d 7444 83bc ac58 91bd 829e 7a3d
00000020: 51d2 1d3d aa5d 0cbd c776 43bc 2a48 923d
00000030: 9d2d 16bd cc5b b03c 18eb 34bd 2314 b33d
00000040: cace 72bd bfcd 3abd 262d 5abd 4af6 393d
00000050: 3982 e5bc 48f4 d53c 7246 bcbd a854 34bd
00000060: 3af1 3a3b ef83 363e 6599 713a 087c a63d
00000070: da80 913d 729b adbd 71c7 56bd de97 5cbd
00000080: 91c3 ad3d 0d91 8abd 8651 15bd a952 cebc
00000090: ace2 35bb 41dd 70bd 5c9e b1bd af11 13bd
000000a0: 5db8 36bc 6478 c73d cee9 6dbd 5f8b 8dbc
000000b0: f4f8 b5bd 7bf8 073d f8e7 70bd 6522 523d
000000c0: 37a6 debc 8500 3b3e 8104 653d 24d1 543d
000000d0: 0566 85ba 4ef1 5d3c 97e9 83bb ba42 323a
000000e0: 93d6 31bd ffea 2bbc 9b7e 143e 99c7 45be
000000f0: ff7c dc3c 7f2c 243e f50c 4dbd 3be5 05be
00000100: 9370 51bd 0211 a2bc 70a8 d6bc 45df 11be
00000110: d1e2 b9bd e145 a6bd dad2 263d 4c3e 9bbc
00000120: 1862 93bd bd8b 9fbd 19b1 11be 63b3 fb3d
00000130: 0454 273c 3d87 e93d c2ce df3b 5390 873c
00000140: 5fb7 d0bc 390b 55bd 099e 1d3e 3709 103e
00000150: 901f e03c 090d 7ebc e9b4 76bc 0bfc 2cbe
00000160: 15be 34bd 18c1 fa3c 61bf 11bd fc9d 57bd
00000170: 1547 dc3a 52f6 4ebd 57fb 9fbc a15d 26bd
00000180: 07bb c1bc ec67 b1bd 598e b73d f681 91bd
00000190: 2205 6bbd 3c5c 373d 7996 40bd c6b9 e13d
000001a0: 114f 833d 5186 b1bd d3bf 433e c3b3 743c
000001b0: ba30 32bd f7c1 88bd 7356 5e3e 2de6 0a3d
000001c0: 27a2 8abc 41f4 2bbd 18e9 483d 337e 64b9
000001d0: b452 33be 27d5 1abc 98ac 8ebd e8fb 94bd
000001e0: 94d7 8cbd 0563 d4bc 139d 0bbb 5fca 82bc
000001f0: 151b 5abd 5fae 43bc bb27 49bd 8e0e f33d
0.100429356 -0.1448775 -0.0572065 0.071196124 0.086654074 -0.016023852 -0.07096991 0.06118632
0.03853065 -0.034269013 -0.011930174 0.071426705 -0.036664594 0.021528147 -0.044169515 0.08744075
-0.05927924 -0.04560637 -0.053265713 0.045400895 -0.028016197 0.026117459 -0.09193124 -0.044026047
0.002852513 0.17823766 0.0009216278 0.08129126 0.071046546 -0.084769145 -0.052436296 -0.05385577
0.08484567 -0.067659475 -0.0364547 -0.0251859 -0.0027753515 -0.058804754 -0.08672783 -0.035905536
-0.011152354 0.097397596 -0.0580843 -0.017278371 -0.08885375 0.033195954 -0.058814973 0.051302332
-0.027178867 0.18261917 0.0559125 0.051957265 -0.0010177499 0.013546301 -0.004025649 0.0006800104
-0.043417525 -0.010493039 0.14501421 -0.19314422 0.026915072 0.16032599 -0.050061185 -0.13075726
-0.05113275 -0.0197835 -0.026203364 -0.14245327 -0.09076465 -0.08118797 0.040728427 -0.018950604
-0.07196444 -0.07790325 -0.14227714 0.12290075 0.010212902 0.11402748 0.0068300674 0.016548311
-0.025478063 -0.052012656 0.15392317 0.14066015 0.0273588 -0.0155060375 -0.015057781 -0.16893022
-0.04412659 0.030609652 -0.035582904 -0.0526409 0.0016805852 -0.050527878 -0.019529028 -0.040616635
-0.023648752 -0.086624 0.089626975 -0.07104866 -0.057377942 0.044765696 -0.047018502 0.110217616
0.06411565 -0.08668197 0.19116144 0.014935437 -0.0435035 -0.06677621 0.21712665 0.03391092
-0.016923023 -0.041980986 0.04905042 -0.00021790787 -0.17512017 -0.009450234 -0.069665134 -0.0727461
-0.06877056 -0.025926122 -0.002130334 -0.015965639 -0.053248484 -0.011943429 -0.049110156 0.118680105

advantage_hidden_layer.weight_mu f4 [128, 128]
00000000: 97b5 dbbc a5b0 e13c 265b afbd 01d2 8c3c
00000010: adb3 95bd 2551 ad3d 4cb6 f8bd 7ffd 0cbe
00000020: 88a2 b73c 51c2 893a 48cb b1b9 9f50 56bd
00000030: d54c aabd 2b8f 9e3d 0612 243d d904 163d
00000040: 62be 5d3d 7003 f73c d029 043d 8e29 473d
00000050: 6383 a43d ea8a d3bd 1d24 ad3d 0d6d babd
00000060: 5bbe 6d3d a258 8dbd 8702 bbbd 7d73 05be
00000070: 3d7f 00bd 4812 563c bcfd 9abd 854d 453d
00000080: ae76 c33b 78f3 18bd a45d 18bc d9dd 0c3d
00000090: bc80 b1bc 7b65 77bd 54fe 99bd 555f 953d
000000a0: 3569 8abd e5cd d9bd fb1d 2d3c 4750 3dbd
000000b0: b26c bfbd 59a1 723d e6ba 86bd fd08 73bc
000000c0: faf0 87bd 0f3a 1ebe 36c9 d4bd a0b0 463b
000000d0: 1d9e 85bd 1072 e33b 4eda 26bd 9c6d 82bc
000000e0: 6a1a 7e3d 6646 9dbc bb8e b9bc 4820 61bd
000000f0: 4604 673d 75c9 08bc 892f 053d a47f 1b3d
00000100: 3aad 96bd c4fe eebd 50e6 903d 67f1 bebd
00000110: c13a 1ebc c0cc 74bd c497 8dbd fc18 0b3d
00000120: fa20 003d 3dd6 c23c be1a 223d c7f3 18be
00000130: 1995 eabd cdb6 57bb 302a c4bb 2d29 01bd
00000140: 7261 a2bd cd7a 07bb c8bb b8bd 11e2 87bd
00000150: 037c bfbd ae80 52bd 4a00 fb3d fe09 b3bc
00000160: c819 32bd b678 79bd f5a1 cdbd 57dc 00bd
00000170: fd3c a9bd ff24 1b3d b5b5 6ebd 73e4 e33c
00000180: 86d6 653d 8bd5 80bd 0f3f b13c 4a0a f1bc
00000190: 6a71 18bd e826 07be 1f50 c7bd 1f7f bfbd
000001a0: 80ba 5c3a 485c 173d 3295 3abe acfa e43c
000001b0: cca9 ea3c 02cd ffbd c5f8 b9bd c93f a8bd
000001c0: cecd fabc d358 803d b205 96bd c3d8 22bd
000001d0: 51a7 29bb e710 393d b145 f1bd 1ed2 463d
000001e0: 4372 75bd e966 8e3d c9ac 943d 9207 8c3d
000001f0: 10d9 893c ab4e c2bc fcea b83c 636f 1ebd
00000200: 5777 d13c c3e1 80bd 66a6 2ebd c50a 87bd
00000210: 138b ebbd 5e93 7f3d 6319 fdbd 797b 02be
00000220: 36e4 26bd 4fa6 d0bc 7075 b7bd c702 8dbc
00000230: 2cce 1d3d 9012 c93b 6742 723c 2de1 a33c
00000240: 4c48 49bd fe64 5e3d d068 95bd e222 47bd
00000250: c84e a4bd 7af3 403d 74b5 9e3d f367 423d
00000260: fe17 cebd 11b6 f0bd 2455 273d 5711 fdbd
00000270: 3d11 ff3c ae0c 413d c301 84bd d1f4 bebb
00000280: 5f2c b9bd c0e1 7bbb bc3e 1cbd f1b5 fb3a
00000290: b4d1 f9bd 4f9a 07bd 8e5a aebd 107b a93c
000002a0: 6726 3bbd 637c 4ebd 518e abbd 9f26 ca3d
000002b0: c88b 95bc 20b3 8cbd 6897 2dbd 3a7a 6fbb
000002c0: ec5f 7a3c 8857 90bd 998d a2bd f58d 4e3c
000002d0: 0222 8ebd 12c5 4f3d 99e2 6ebd b746 8d3d
000002e0: bfc4 4ebd 0a61 2cbd 7792 11bd d822 993c
000002f0: c04f 78bc eadb 6f3d 539d 05be 8626 bf3d
00000300: 136f 78bc 93ff d4bc c9bb b13c 1873 e6bc
00000310: 91d3 52bd 7bda a8bd 2bd9 b9bc c148 2f3d
00000320: f9c4 92bd ba92 36bd acdc 1cbd 2172 d6bd
00000330: 64f2 b1bd 9638 d5bd a45b 83bd e2f4 283d
00000340: 28b6 b43c 4c8f c33d 8b51 6bbe fa5a 7bbd
00000350: 82fc 9bbb 1e3c 713d 9ee5 8c3d 712b b03d
00000360: 326b 773d bcd9 5bbd ca4c 713d 7e26 07bd
00000370: 7f24 553d 9663 2bbd a2ed 9ebd 663d 853b
00000380: b96c 9d3d 6c29 ad3d 7cf5 7fbc e94a 923d
00000390: 4780 c7bd cedc c5bd 66ab 903d 53d1 15bc
000003a0: eed9 c83c 9a5a 0abe a043 cdbc 23de aa3d
000003b0: 5a23 f9bc 7474 bdbd 77a5 96bc d7b9 b9bd
000003c0: b824 64bc d873 3e3d a381 883d 7067 c13b
000003d0: 7db8 533c cee6 ad3d be82 e6bd 0f8a 61bd
000003e0: f9fb ffbc 7216 10bd 0cd1 83bd f935 603d
000003f0: 2262 303d b0af 66bd 21a5 41bc 469b 09bd
-0.026819987 0.027550051 -0.08562307 0.017189981 -0.07309661 0.08462743 -0.12144145 -0.13768576
0.022416368 0.0010510181 -0.00033911527 -0.05232298 -0.08315436 0.07742151 0.04005625 0.036625717
0.05413664 0.030153006 0.032266438 0.048623614 0.080328725 -0.1032923 0.08454154 -0.09102831
0.058042865 -0.06901671 -0.091313414 -0.13032337 -0.031371344 0.013065882 -0.07567927 0.04816963
0.0059650755 -0.037341565 -0.009299669 0.034391258 -0.02166783 -0.060399514 -0.07519212 0.07293574
-0.06758348 -0.106349744 0.01056623 -0.046219137 -0.09346904 0.059235904 -0.06578617 -0.014833686
-0.066377595 -0.15451835 -0.103899404 0.003031768 -0.06524298 0.0069410875 -0.040735535 -0.015921406
0.06203691 -0.019198608 -0.022651067 -0.054962426 0.05640056 -0.008348812 0.032516036 0.037963524
-0.07357259 -0.116696864 0.070751786 -0.093233876 -0.009657563 -0.059765577 -0.069137126 0.033959374
0.03128145 0.023783797 0.039576285 -0.14936744 -0.11454219 -0.0032915354 -0.0059864745 -0.03153341
-0.079287425 -0.002067256 -0.090201914 -0.066349156 -0.09349825 -0.05139225 0.122559145 -0.02185535
-0.04348162 -0.060906135 -0.100406565 -0.031460132 -0.08263586 0.03787708 -0.058278758 0.027818894
0.05611279 -0.0629073 0.021636514 -0.029423852 -0.037217535 -0.13198435 -0.09732079 -0.09350418
0.00084201247 0.03695324 -0.18220976 0.02795156 0.028645419 -0.12490274 -0.09080652 -0.08215291
-0.030615713 0.06266942 -0.07325305 -0.0397575 -0.0025887082 0.045182135 -0.11780871 0.048540227
-0.05992342 0.06953222 0.07259519 0.068373814 0.016827136 -0.023719152 0.022572987 -0.038680445
0.025569601 -0.06293061 -0.04263916 -0.06593851 -0.11501136 0.0623964 -0.12358358 -0.12742414
-0.040744983 -0.025469927 -0.08957946 -0.017213238 0.0385267 0.006136246 0.014786339 0.020004833
-0.049141213 0.054295532 -0.07295382 -0.04861725 -0.08022839 0.047107197 0.07749453 0.047462415
-0.1006317 -0.117534764 0.04085268 -0.12356823 0.03113615 0.047131233 -0.064456485 -0.0058275242
-0.09041666 -0.0038434118 -0.038145766 0.0019204003 -0.12198201 -0.033106145 -0.08513366 0.020688564
-0.04569092 -0.050411593 -0.08376754 0.09870648 -0.01825513 -0.06870103 -0.04238072 -0.0036541359
0.015281659 -0.07047945 -0.07937164 0.012607087 -0.0694008 0.05072505 -0.05832157 0.068982534
-0.0504806 -0.04208473 -0.03554007 0.018693373 -0.015155733 0.058559336 -0.13048296 0.0933352
-0.015163201 -0.026000774 0.021695988 -0.028131053 -0.051471297 -0.08244797 -0.022686562 0.042793993
-0.07166476 -0.044573523 -0.038296387 -0.10470987 -0.086888105 -0.104111835 -0.064139634 0.041249163
0.022059515 0.09548816 -0.22980325 -0.06136606 -0.004760326 0.058895223 0.068797335 0.08602036
0.060404964 -0.053674445 0.058911122 -0.032995693 0.05203676 -0.04184302 -0.077601686 0.004066157
0.07686753 0.08455166 -0.015622493 0.07143194 -0.09741264 -0.09661256 0.07063942 -0.009144145
0.02451798 -0.13511124 -0.02505666 0.083431505 -0.030412365 -0.09250727 -0.018389447 -0.09068649
-0.01392477 0.046497196 0.06665351 0.0059022233 0.012922403 0.08491288 -0.11255406 -0.055063304
-0.03124808 -0.035177656 -0.06436357 0.054738972 0.043062337 -0.056319892 -0.011819155 -0.033595346

advantage_hidden_layer.weight_sigma f4 [128, 128]
00000000: deb7 6b3d 47b7 8f3c 1351 073d 0b72 ca3c
00000010: ed9e 0e3d f304 353d da06 613d ed0a 493d
00000020: 9a04 763d bd12 193d 469f a93d 3bf1 08bd
00000030: 383a 7b3c f304 353d f2c3 9d3d c5d4 19bd
00000040: f304 353d f304 353d 4a79 453d f304 353d
00000050: f304 353d 74e7 113d f304 353d 85a8 b6bb
00000060: f6ed fb3c d030 1cbc 2591 883d 81d1 953d
00000070: 687d de3c f304 353d 2c58 413d 4761 37bc
00000080: f76a cc3b 4111 1d3d f0ed dbbd 668c 693d
00000090: 3836 70bc 5483 9e3c 0323 333c f304 353d
000000a0: b765 bcba 0813 193c d6ee 5f3b 181c e53b
000000b0: 35a4 06bd cb33 2f3d ed42 2f3d 8de5 b03d
000000c0: 655b 323d e6d5 afbc ee7e ad3c f304 353d
000000d0: c36e 873d f304 353d 1952 1f3d 1fe6 2b3d
000000e0: 0cc1 193e 90c7 353d 9fa9 9c3d 1c2c 513d
000000f0: f304 353d f2d5 0f3d 637d c9bd 3a33 cabc
00000100: fc0e 8a3d 11ea 093d e366 0b3e a72a f4bc
00000110: 1a7b 043d cc6e 2f3d 1369 4c3d ea73 403c
00000120: 1a89 3c3c e8ea b63c f304 353d 539f 0e3b
00000130: 66af 153d ba5a 7b3c f304 353d 5917 9d3d
00000140: 5f9f 743d 4114 fe3c 2a39 ab3d 8175 943d
00000150: 8f16 bb3b ac32 833d f8af 183d 8461 953d
00000160: 53f4 893d 3d47 403d 28b7 323d 0129 d73c
00000170: 1597 2a3d db4c 0a3d 0bf9 113d 8402 d03d
00000180: f304 353d adb1 bd3d 21fc 2c3d f304 353d
00000190: 7854 003e d3bc 5b3d da5d 7c3c 7f23 43bb
000001a0: f304 353d 825a 513d eb01 a43d d6de e73c
000001b0: f304 353d 2ea1 813d d58b e63a d7a7 ec3c
000001c0: f304 353d 063d 1f3d fdd6 293d 1d2a 873d
000001d0: a7b3 463d 51e0 413d a9f9 d13d f304 353d
000001e0: 079a 80bc 5a41 b6bb f32f 5b3d 03f4 1bbc
000001f0: f304 353d d2af 6c3c f304 353d 6dde 2fbd
00000200: 406d 353c 6a27 ac3d f43b a03c 162d 223d
00000210: 151f 763d f304 353d eaa9 14bb 0486 173d
00000220: 80ba 733d 438d 3c3d 12fd a73d 47c9 a43c
00000230: f828 4d3d f304 353d 3937 1d3e bd4b a83d
00000240: 13af d23d f304 353d 80c9 283d f304 353d
00000250: f304 353d fcae 183d 2dbc 1e3d 89e2 d33d
00000260: c62e 863d 2fd8 2c3d 7bc6 803d 8843 fcb9
00000270: 31a6 093b f304 353d 9193 203d c63e bb3d
00000280: a306 a23c f304 353d e7fe 1b3b 2786 c53c
00000290: 9994 453d a4ba e83b aeb1 1dbb f304 353d
000002a0: 3eba 953d 2309 113d 3434 243d d5d5 803d
000002b0: 0477 043d 39bc 353d 5989 373d 568b 4a3d
000002c0: 5048 46bd 7b6a 483a f778 0c3d 4c52 3a3d
000002d0: bd46 483d 05f4 293d 80c9 203d 4fbb 413d
000002e0: a1e9 513c 6f30 843c 0a48 d53c db3a 5a3d
000002f0: f304 353d 9a99 bebd 3e84 3abd 5125 8c3d
00000300: bc8c 173c fe6c 423d 009d a03c 04e1 cbbc
00000310: a43d dd3d 5040 4c3d 260d 423d 4243 433c
00000320: 0e8b 20bd 915d 98bd f304 353d 61d8 01bb
00000330: 83a4 863c 2845 1bbc 1656 543d b81d c93d
00000340: 311a cd3c 67db e23d 7cf3 233c 7109 0ebd
00000350: 6959 813d f475 893d 3a7d bb3d 89cd 403d
00000360: 5d10 953d da88 bf3c a18e 373d 1a8c 243d
00000370: 244b c53d 71c1 623d c58e 143c 9465 193e
00000380: f304 353d 648d b83d 7081 9c3d f304 353d
00000390: e154 e7bc c17f 0e3d 7799 96bd da14 a23d
000003a0: 4592 133d 8b7a 323d bc18 fbbb 18db 303d
000003b0: e857 4c3d 300f fa3d a7a6 133d ae1b 043c
000003c0: 3037 233d 12de 1d3d 38a8 433d 4615 043d
000003d0: 5a28 483d 6501 483d 1d97 a73d 3175 183d
000003e0: e48c e13d 1395 4b3c 2c1b fc3d a832 0dbd
000003f0: f304 353d bf25 4bbd 28bc 483d d155 7a3d
0.057548396 0.017543448 0.033036303 0.024712583 0.034819532 0.044194173 0.054938175 0.049082685
0.060062982 0.037371386 0.08282332 -0.03343318 0.015333705 0.044194173 0.07703389 -0.03755643
0.044194173 0.044194173 0.048211373 0.044194173 0.044194173 0.03562112 0.044194173 -0.0055742883
0.030753117 -0.009533122 0.06668309 0.0731535 0.027159408 0.044194173 0.047203228 -0.011192626
0.006238337 0.038346533 -0.10738742 0.05701866 -0.014661364 0.019349732 0.01093364 0.044194173
-0.0014373575 0.009342916 0.0034169457 0.0069918744 -0.032871444 0.042774003 0.042788435 0.08637533
0.043544192 -0.0214643 0.021178689 0.044194173 0.06612923 0.044194173 0.038896654 0.041967507
0.15015048 0.04437977 0.0764954 0.051067457 0.044194173 0.035116144 -0.09838369 -0.02468263
0.06741139 0.03367049 0.13613467 -0.029805494 0.03234396 0.042830274 0.049904894 0.011746386
0.011507297 0.022328809 0.044194173 0.0021762445 0.036544226 0.015341455 0.044194173 0.07670469
0.0597223 0.031015517 0.083605126 0.072489746 0.0057094763 0.06406149 0.037277192 0.0729399
0.06736054 0.046942938 0.043631703 0.02626467 0.04164799 0.0337647 0.035637897 0.1015673
0.044194173 0.092624046 0.042232636 0.044194173 0.12532222 0.053646874 0.015403235 -0.0029775796
0.044194173 0.051111706 0.08008178 0.028304499 0.044194173 0.06329571 0.0017589281 0.028888626
0.044194173 0.038876556 0.041464794 0.06599829 0.048511174 0.047333065 0.10252697 0.044194173
-0.015698446 -0.0055619897 0.053512525 -0.009518626 0.044194173 0.014446216 0.044194173 -0.04293673
0.0110734105 0.08405955 0.019559838 0.03959378 0.060088236 0.044194173 -0.0022684284 0.03699304
0.059504032 0.046033155 0.08202566 0.020115508 0.0500879 0.044194173 0.15353097 0.08217571
0.10287299 0.044194173 0.04120779 0.044194173 0.044194173 0.037276253 0.038753677 0.103459425
0.0655189 0.042198356 0.06287857 -0.000481155 0.0021003599 0.044194173 0.03920323 0.091428325
0.019778555 0.044194173 0.0023803057 0.02411182 0.048237417 0.0071023274 -0.0024062204 0.044194173
0.073109135 0.035409104 0.040088847 0.06290785 0.032340065 0.044368956 0.04480872 0.049449287
-0.048408806 0.00076452614 0.03429505 0.04548864 0.048895586 0.04149248 0.039254665 0.047297772
0.012812049 0.016136376 0.026035327 0.053278785 0.044194173 -0.09306641 -0.045536272 0.06843055
0.009249862 0.047467224 0.019606113 -0.02488757 0.10802773 0.04986602 0.04737582 0.011917891
-0.039195113 -0.074397214 0.044194173 -0.001981281 0.016435867 -0.009476937 0.05183991 0.098201215
0.025036903 0.11077004 0.010006782 -0.034676973 0.06315882 0.06711951 0.091547444 0.047071014
0.07278512 0.023380686 0.044813756 0.040172674 0.096334726 0.05536026 0.009067242 0.14980155
0.044194173 0.09011343 0.07641876 0.044194173 -0.028238716 0.034789804 -0.0735349 0.07914133
0.036028165 0.043573897 -0.0076628607 0.043177694 0.04988852 0.12209928 0.036047604 0.00806324
0.039847553 0.03854186 0.047767848 0.03224685 0.048866607 0.048829455 0.081831194 0.037221137
0.11013201 0.012425679 0.1230987 -0.034472138 0.044194173 -0.049596544 0.049007565 0.061116997

advantage_hidden_layer.bias_mu f4 [128]
00000000: 2c81 5cbd 6a43 08bd dd85 1c3d 93d3 a93c
00000010: 687b f63d f77c 083d 7352 20bd 5cf2 493d
00000020: a367 abbd e3e0 36bd d6a6 8abd f54b 533d
00000030: 05a4 01be d90a cc39 c46b 293d f4a0 ea3c
00000040: 500f f8bd a54d fabc c1f9 92bd 8b57 8c3c
00000050: 71b2 bfbb 3ace 63bd b0cd 8ebd 2411 53bd
00000060: 188c 3abd 42c6 443d 3071 debd 900a b03d
00000070: 9a0f b1bd 7552 c9bd bb89 bebd 368a 6b3d
00000080: 97d2 e8bd 1bae 88bd d882 59bd f190 adbd
00000090: 5cd7 04be 4a40 6bbc a96a edbd bf46 833d
000000a0: c281 bdbd d7f4 94bb 5e24 4abd cc22 273b
000000b0: 3218 c2bd e45f 1dbe cc0d 7bbd 52fd 52bd
000000c0: 21e2 9a3c b441 ccbd bb94 1bbd 601e dfbd
000000d0: 6a6e 973d 1fa0 9ebd 492d 99bd 2b55 1abd
000000e0: 6957 1c3d 017a 7cbd c8d6 573c d044 1bbe
000000f0: 584a 063d 6f0a 7dbd 44b1 77bd 8ceb cabd
00000100: acaa cdbc 7e26 fb3c f70a 97bd d67c 81bd
00000110: 3752 00bd fc6f 8d3c d330 bdbd 7e03 5abd
00000120: b364 133e 5088 e63d 8e2b f2bd 0215 a6bd
00000130: ef1b 54bd b582 023b ac94 7c3e b867 953c
00000140: dc37 463c 34d3 f8bd 733c a3bc de9b 0b3d
00000150: 10a6 6dbd 530c 63bc f8ad 983d 0ac3 79bc
00000160: 3a42 cebd a12e c3bd c9da 2abd 7781 953d
00000170: adae 07bc d5fe 0abe 95bf 0dbe 1ef3 583c
00000180: f89e 9abd 908a ccbd d6d9 d3bc 9a08 663c
00000190: c385 65bd 62cd e93b cc3b 95bd 9dc6 01be
000001a0: 182d 53bc 46ea 7a3d c589 8abc 3170 d63d
000001b0: 0461 07be 2b1c 03be c6cf d3bc 1901 f9bd
000001c0: d784 b23b 3760 67bd 3cae b53d 9eb7 913b
000001d0: 7a9c 2ebc 782a f7bd 0c8e 85bd 28e3 d93c
000001e0: de79 91bc 1fad 1cbe 251e 743d 497e 77bd
000001f0: 97ba 34be cde1 a9bd f53f 0cbd 88ea 22be
-0.053834125 -0.033267416 0.0382136 0.02073077 0.120352566 0.0333223 -0.03914113 0.049303398
-0.083693765 -0.044648062 -0.06770103 0.05158611 -0.12660225 0.00038917994 0.04136254 0.028641202
-0.12112296 -0.030554602 -0.07176543 0.017131587 -0.0058501293 -0.055616595 -0.069728255 -0.05153002
-0.04554376 0.048040636 -0.108614326 0.08595765 -0.08645554 -0.098301806 -0.09303614 0.057504855
-0.11368292 -0.06673833 -0.053103298 -0.08474911 -0.12972778 -0.014358589 -0.115926094 0.06409978
-0.09253265 -0.0045457887 -0.04935109 0.0025502918 -0.09477271 -0.1536861 -0.061292455 -0.051511116
0.018906655 -0.099734694 -0.037983637 -0.108944654 0.07394107 -0.077453844 -0.074793406 -0.03767888
0.0381693 -0.06163979 0.013173766 -0.15162969 0.032785743 -0.06177753 -0.060471788 -0.09908208
-0.025105797 0.030658003 -0.07375138 -0.06322639 -0.031328406 0.017265312 -0.09237828 -0.053225987
0.14393882 0.11256468 -0.11824714 -0.08109476 -0.051784452 0.0019914333 0.24666089 0.018237934
0.012098279 -0.12149659 -0.019926285 0.034084193 -0.058019698 -0.013857919 0.07455057 -0.015244255
-0.100712255 -0.09530378 -0.041712556 0.07300084 -0.008281392 -0.13573773 -0.13842614 0.013241557
-0.07549852 -0.09987366 -0.025860708 0.014040137 -0.05603577 0.0071350792 -0.07286796 -0.12673421
-0.012889169 0.061258577 -0.016911397 0.104706176 -0.13220602 -0.12803714 -0.02585591 -0.121584125
0.0054479646 -0.056488242 0.08871123 0.0044469377 -0.010657424 -0.12068647 -0.06521234 0.026597574
-0.017758306 -0.15300415 0.05959906 -0.06042317 -0.17649303 -0.08295021 -0.03424068 -0.15909779

advantage_hidden_layer.bias_sigma f4 [128]
00000000: 6f64 dc3c 9504 20bd 3dc2 fd3b e9fd c93c
00000010: 7210 59bc 77d4 f6bc efdd 853d 279e ac3c
00000020: 5ced 4d3d ceed 87bc d7d7 173d 6e9f abbb
00000030: 1a2a 0a3b 00c4 903d cbfc 8f3c ebd5 b2bc
00000040: d1de 023d e2f7 c93d 3d0f ad3c 1774 ff3c
00000050: 3e96 5c3d f527 ee3c 7725 ab3c 5955 1e3d
00000060: c98f 893d 78b2 e43b 062b 223d 01f3 a6bc
00000070: c68a 9b3d 3605 efbc 37fb 23bd e1c0 813d
00000080: 7101 223c 9420 7a3d 91a4 e43c 33e9 33bc
00000090: 3d68 6c3d 3b10 073d 9bba adbc 4b2e 143c
000000a0: 2c70 f4bb d028 7d3c 1cf0 c8bb f234 86bc
000000b0: 772e 8ebc 919e 9dbc 941c 7c3d 4e31 24bd
000000c0: 5828 c53c 8701 04bc 6669 873d 3dfc 603d
000000d0: 0a91 523c 632f d03c e1f8 0dbd 313e 9c3c
000000e0: 201d d93c e08e 4d3d 6860 753d 261d da3c
000000f0: 01b2 803b 2580 4cbd 6758 e63c 0e06 d6bc
00000100: d62d b1bb 499f 0dbc fed0 633d 99aa 2e3d
00000110: 465f 85bc 4a55 adbd ca03 c03c 1e57 063d
00000120: c957 853c 21fc 643b e91d 2c3b 4d74 073d
00000130: 7d27 683d a23f 913c 89df 1abc 5a00 263c
00000140: 964f af3d bf3b 1b3c caa4 eabc 22b9 a0bc
00000150: 6756 0c3d 68a5 c33b 4e2d 863c 8f10 2e3d
00000160: 349d 683d 5d6d 043d 6bce 9e3c ec47 cfbc
00000170: 5223 643d 4ed3 4cbd 1728 b03c c2bb 76bc
00000180: 269e fc3c 108d 0c3d 5e83 3cbc 7174 9a3c
00000190: 7d15 55bd 586d 2e3d 191f 84bd d57d 2d3a
000001a0: 9c04 82bc c7b3 183c 23ac 703c f87b 603c
000001b0: 82e7 493d 120f bfbc 2d01 543d 77cb 2a3d
000001c0: 37db dc3c fb08 e63d 7289 b93a 5140 343c
000001d0: 6cde b3bc 2cba 0b3d e817 003d 9fbc f6bb
000001e0: 1dcc 343c d585 793c 42a0 703c fb8b 8c3c
000001f0: 6b6f 9f3c 356a cb3c b1f8 d63c 267b 96bc
0.02690336 -0.03906687 0.0077441023 0.024657207 -0.01324855 -0.030130608 0.06536471 0.021071507
0.05027519 -0.016592886 0.037071075 -0.0052375114 0.0021082223 0.07068634 0.017576596 -0.02183052
0.031950776 0.09861733 0.02112543 0.031183286 0.05385422 0.029071787 0.020891888 0.038655613
0.06716878 0.006979283 0.03959181 -0.020379545 0.07594828 -0.02917729 -0.0400345 0.06335617
0.009888039 0.061066225 0.027910503 -0.010980892 0.057716597 0.032974463 -0.021207144 0.00904424
-0.007459661 0.015451625 -0.006132139 -0.016382668 -0.01735614 -0.01924065 0.06155069 -0.040086083
0.024067089 -0.008057005 0.066119 0.054928053 0.012851963 0.02541322 -0.034661178 0.019072624
0.026503146 0.050185084 0.059906393 0.026625227 0.0039274697 -0.049926896 0.028118325 -0.026125934
-0.0054070754 -0.008643934 0.055619232 0.042643163 -0.016280781 -0.08463533 0.023439307 0.032797925
0.01627721 0.003494032 0.0026262945 0.033069897 0.056678284 0.017730538 -0.009452709 0.01013192
0.08560102 0.009474694 -0.02864303 -0.019619528 0.034262087 0.0059706457 0.016379025 0.04249626
0.056790546 0.03233086 0.019385537 -0.02530285 0.055697747 -0.050006203 0.021503491 -0.015059413
0.03083713 0.034314215 -0.01150593 0.018854352 -0.052022446 0.042584747 -0.06451244 0.00066181767
-0.015871339 0.009320206 0.014689478 0.013701431 0.04929305 -0.023322616 0.051758934 0.041697945
0.026959999 0.11232182 0.0014155342 0.011001662 -0.021956645 0.034113094 0.0312728 -0.0075298096
0.0110349925 0.015229662 0.014686646 0.017156592 0.019462308 0.024830917 0.026241632 -0.018369269

advantage_hidden_layer.weight_epsilon f4 [128, 128]
00000000: 7f80 90bf dde1 c23e 6194 b03f 1e1e 9d3f
00000010: 23bf 423f 16b7 8f3f 006a 61bf 1468 abbf
00000020: 01cd 9f3f 53e9 8bbf d553 dbbf 789f a4bf
00000030: e2e4 703f 49f9 84bf 049b babf 9048 a9bf
00000040: 62bc c8bf f579 9ebe 617a 983f 20ae 1bbf
00000050: b2d2 413f 978f 0940 0474 d03f 47f4 8abf
00000060: 9436 cbbf 52b5 b33f 79a7 8b3f b003 b0bf
00000070: a082 cfbf 3d71 d43f b2f0 50bf f1ed 3c3f
00000080: d5b7 aa3f dcc9 9abf 3858 80bf ad15 f2be
00000090: d04e 64bf 0039 b8bf 79aa 9b3f 7f0a cbbe
000000a0: 29b6 003f bd18 033f c54b 903f dfc2 443f
000000b0: 0f6d 883f 765c b53f c1ed 363f d715 a2bf
000000c0: 9650 e6be 30b7 cf3e 25bb 3a3f dffd f0be
000000d0: 38bc 5c3f efaf ce3f bf54 0dbf e22a 6f3f
000000e0: ab83 98bf af8a 82bf cb27 babf b94a b5bf
000000f0: 274d f6bf e09f 973f aeb5 5abf dbc4 96bf
00000100: d218 abbf c092 43bf 344a be3f 51d1 6dbf
00000110: ca36 37bf d225 913e 2722 bc3e 92de f53e
00000120: f2d7 593f 8201 b73f 86f9 8f3f 7098 6abf
00000130: 0a61 8fbf 1c1a 86bf 46ac 9dbf 4e3b 073f
00000140: d935 783e 8582 c73f bea2 cfbe 52e8 89bf
00000150: 2e85 7bbf 545e 7a3f 62b5 ebbf 1d34 893f
00000160: c805 10bf 15e6 853f dcb4 e5bf a6cd debe
00000170: 8dcf 003f e65a 713f 0364 303f 8f57 74bf
00000180: b713 683f 6e77 da3e 20cb 3c3f f480 863f
00000190: dd2a 173f ea45 80bf d20a 9bbe 2e82 5e3e
000001a0: 3bb4 f23e 0059 81be 5c0f 933f 699b a7bf
000001b0: 3182 9d3e 3c36 3b3e 88b3 653f dc0e 82be
000001c0: 9007 97bf 2762 10be 1eee 6c3f aa7a b5bf
000001d0: 3da4 8fbf 3048 533f a44b c8be 45d2 2ebf
000001e0: a609 413f 71f8 843f deb3 a93f c947 1f3e
000001f0: c794 c43f a8a2 1d3f 3e6b 813f 5c6a d8be
00000200: 97f5 40bf fb1d 823e 40cb 6b3f 3ace 513f
00000210: cc06 023f a3e8 3f3f 9680 16bf dbe2 64bf
00000220: 7563 553f 55d4 3abf 3e70 92bf e4d3 5bbf
00000230: 7cd6 203f b790 31bf 952e 79bf 140d 62bf
00000240: 8006 86bf b79e 53be 329c 4b3f d6e2 cfbe
00000250: ef68 013f cfb0 b73f 922d 8b3f 1d8d 39bf
00000260: efad 87bf c8f8 6f3f 667c 3a3f 080a 6bbf
00000270: 678c 8abf 69d7 8d3f d180 0bbf 0349 fc3e
00000280: 82f7 633f 06b2 4ebf 3f62 2bbf fda1 a1be
00000290: 356f 18bf 0100 76bf f5dd 4f3f 8090 87be
000002a0: b1df ab3e 050f af3e 2eaf 403f 235f 033f
000002b0: da2c 363f d02d 723f ad45 f43e 6a70 58bf
000002c0: 3cc6 99be 7faf 8a3e 7d59 f93e 2be7 a0be
000002d0: dd60 133f bbff 893f 9fb9 bcbe 60af 1f3f
000002e0: 9aa8 4bbf 5551 2ebf b994 78bf 2016 72bf
000002f0: b872 a4bf 6c78 4a3f a606 12bf f553 49bf
00000300: 0479 64bf 1694 02bf 0f1a 7e3f a6c8 1ebf
00000310: 34a7 f4be 5ad2 413e e238 7b3e e328 a43e
00000320: 9b72 113f 0f60 743f 5a41 403f e7a1 1cbf
00000330: bc75 3fbf 6412 33bf 0f8c 52bf 9194 b43e
00000340: 02b9 253e f134 853f d8a1 8abe 4c27 38bf
00000350: bfee 27bf e229 273f 2760 9dbf a836 373f
00000360: b851 c0be ebcc 323f 435e 99bf 59c2 94be
00000370: 9901 ac3e 4825 213f a98a eb3e d223 23bf
00000380: 71f3 1a3f 16dd 913e 841a fc3e b99b 333f
00000390: 2bdc c93e ce49 2bbf c508 4fbe f68f 143e
000003a0: d90b a23e 24b9 2cbe 0d60 443f 04d0 5fbf
000003b0: dd53 523e dafd f93d 605d 193f fbab 2dbe
000003c0: 07ad 49bf 12cd c0bd f530 1e3f 2556 72bf
000003d0: 78cf 3fbf 1411 0d3f 3abb 85be 3372 e9be
000003e0: b3e2 003f 978f 313f 5d9c 623f 92b1 d43d
000003f0: 5d40 833f 377f d23e 7fd1 2c3f 837e 90be
-1.1289214 0.38062945 1.3795282 1.2274816 0.760729 1.1227748 -0.8805237 -1.3391137
1.2484437 -1.093058 -1.7134959 -1.2861166 0.9409925 -1.0388576 -1.4578557 -1.3225269
-1.568249 -0.3095242 1.1912347 -0.6081257 0.7571212 2.149389 1.6285405 -1.0855798
-1.5876031 1.403971 1.0910484 -1.3751125 -1.6211739 1.6597058 -0.8161727 0.7380057
1.3337351 -1.2092853 -1.0026922 -0.47282162 -0.8918276 -1.4392395 1.2161399 -0.39656445
0.50277954 0.5120962 1.1273123 0.7685985 1.0658282 1.4168842 0.71456534 -1.2662915
-0.44983357 0.40569448 0.7294181 -0.47068688 0.862247 1.6147441 -0.5520744 0.9342481
-1.1915182 -1.0198573 -1.4543394 -1.4163429 -1.9242295 1.1845665 -0.8543347 -1.1778826
-1.336695 -0.763958 1.4866395 -0.92897516 -0.71567976 0.28349167 0.36744806 0.4802137
0.8509513 1.4297335 1.1248024 -0.9163885 -1.1201489 -1.0476718 -1.2318199 0.52824867
0.24239291 1.5586706 -0.4055385 -1.0774024 -0.9825009 0.97800183 -1.8414729 1.0719029
-0.5625882 1.046084 -1.7945819 -0.43516272 0.503167 0.94279325 0.68902606 -0.95446104
0.9065508 0.42669243 0.73747444 1.0508103 0.5904978 -1.0021336 -0.30281693 0.21729347
0.4740313 -0.25263214 1.1489062 -1.3094302 0.3076339 0.18282408 0.8972707 -0.25401962
-1.1799183 -0.14099942 0.9255084 -1.4178059 -1.1221997 0.82532024 -0.3912021 -0.68289596
0.7540535 1.0388318 1.3258016 0.15554728 1.5357903 0.6157632 1.0110853 -0.42268646
-0.7537474 0.25413498 0.9210701 0.819553 0.5079162 0.7496435 -0.58789957 -0.89408654
0.83354884 -0.7298024 -1.1440504 -0.85870194 0.6282728 -0.6936144 -0.97336704 -0.88301206
-1.0470734 -0.20666014 0.7953521 -0.4060275 0.5055074 1.4350833 1.0873282 -0.72480947
-1.0599955 0.93738985 0.72846067 -0.9181218 -1.0824097 1.1081363 -0.54493433 0.49274454
0.8904954 -0.8074039 -0.66946787 -0.315689 -0.5954469 -0.96093756 0.81198055 -0.26477432
0.335691 0.34191146 0.75267303 0.5131704 0.7116219 0.94601154 0.47709408 -0.8454653
-0.30034053 0.27087018 0.48701087 -0.31426367 0.57569677 1.0781168 -0.36860368 0.62376976
-0.7955414 -0.6809285 -0.9710193 -0.9456501 -1.2847509 0.7909 -0.57041395 -0.78643733
-0.89247155 -0.5100721 0.9925851 -0.62024915 -0.47783816 0.18927899 0.24533418 0.32062444
0.568155 0.95459074 0.7509972 -0.61184543 -0.74789023 -0.69949937 -0.8224496 0.35269597
0.16183856 1.0406781 -0.27076602 -0.7193496 -0.6559867 0.65298283 -1.2294968 0.71567774
-0.37562346 0.6984393 -1.1981891 -0.29054525 0.3359497 0.6294751 0.46004227 -0.6372653
0.6052771 0.28488988 0.4923898 0.7015949 0.39425787 -0.6690949 -0.20218189 0.14508042
0.31649664 -0.168675 0.7670906 -0.8742678 0.20539804 0.122066215 0.59908104 -0.16960137
-0.78779644 -0.09414114 0.6179345 -0.94662696 -0.7492595 0.55104184 -0.26119405 -0.4559494
0.50345916 0.69359726 0.8851984 0.10385431 1.0254017 0.41112682 0.67507166 -0.2822152

advantage_hidden_layer.bias_epsilon f4 [128]
00000000: af89 97bf c95a 4abf 2498 43bf 6fb8 5e3f
00000010: 91f1 6b3f 7eea 50bf 4869 863f 68a0 9cbf
00000020: c38b 0bbf bda5 3b3e c145 9f3f 2ef7 85bf
00000030: ce14 65bf 47d8 00be 4e65 0b3f dd07 9b3f
00000040: 7d68 f23e 63b6 c4bf e609 b43f 2cf7 cbbe
00000050: aa92 c0be a6d3 863f 8272 6b3f 2cea 933e
00000060: 1e87 113f ac96 a0bf 9b5b 45bf 5ed3 fb3e
00000070: ee14 3c3f 3c43 c0be 2ef4 9f3f 7bd0 92bf
00000080: 74ab 9abf 0d58 633f fe56 973f 50b7 8cbf
00000090: 7328 8c3e 1ac4 89bf d04a 11bf b75c 01bf
000000a0: 6de9 803f 96d9 b7be 5d52 3abf cd47 e4be
000000b0: 3eec 6b3f 09bc b1bf de1f 6dbf 3f65 793f
000000c0: 6d70 3e3f 5ca0 13be a949 b6bf 3616 803f
000000d0: 033b 13bf 0da3 8d3f fe0e 493f 773c 513f
000000e0: 4b43 183f 4b0c 78bf f20b 12bf 15c7 73be
000000f0: 3b6c ae3f 37c9 29bf 0a4b 4bbf 3453 d43e
00000100: d9a2 95bf 38ed 34bf d37f 0d3f 24c5 5bbf
00000110: 41d5 243f cb19 fa3e 5aa2 373f 7f73 7dbf
00000120: 6b9c 593f 609c e0be 240c 3ebf ba70 9a3f
00000130: 0b5a ba3e 88bc 9ebf 10ec ab3d 7abc c73e
00000140: 7fc0 18bf 4c35 9bbf e960 533f 71c2 4cbf
00000150: 9e4f 693f 8661 17bf 8bb9 c3be 9573 3e3f
00000160: 2c15 073f 4029 d43f 7603 4e3f 5ba3 8d3f
00000170: 3896 84bf e40c e0be ee46 f1be 48f1 a73f
00000180: 0f5e 53bf 7f84 5dbf d4fe fabe 0edb 793f
00000190: 76eb 87bf 0277 22bf 01c2 7abf a002 0bbe
000001a0: 4a9e 713f bebf 65bf a303 593f 9c1f 82bf
000001b0: fdb0 d33e b39a a9bf fdf2 cebf 701a 4cbf
000001c0: df44 1fbf f83b 5cbf 3713 a03f e40d 93bf
000001d0: b436 83bf 8a04 353f b842 7f3f 2610 01bf
000001e0: 3543 7f3f a3b8 b63f 7e44 abbf ad5f 83bf
000001f0: 706f b53f 99ad 5bbf 6509 943f 9b9a 7e3f
-1.1838893 -0.7904478 -0.76404023 0.87000173 0.92165476 -0.81607807 1.0500879 -1.2236452
-0.54510134 0.18324943 1.2443162 -1.0466058 -0.8948487 -0.12582503 0.54451454 1.2111775
0.47345343 -1.536816 1.4065521 -0.39837015 -0.37611896 1.053334 0.919716 0.28889596
0.568468 -1.2545981 -0.77092904 0.49184698 0.73469436 -0.37551296 1.2496393 -1.1469873
-1.2083573 0.8880623 1.1823423 -1.0993443 0.2737461 -1.076297 -0.5675478 -0.50532097
1.0071236 -0.35908192 -0.72781926 -0.4458603 0.9215735 -1.3885509 -0.9262675 0.97420114
0.743903 -0.14416641 -1.4241229 1.0006778 -0.5751192 1.1065384 0.785385 0.8173289
0.5947768 -0.9689376 -0.5704948 -0.23806413 1.3626779 -0.66322654 -0.79411376 0.4146973
-1.1690322 -0.7067447 0.5527317 -0.8584769 0.643879 0.48847803 0.71732104 -0.9900436
0.850043 -0.43869305 -0.74237275 1.2065651 0.36396822 -1.2401285 0.08394635 0.39010984
-0.59668726 -1.212564 0.8256975 -0.79984194 0.9113711 -0.59133184 -0.38227496 0.74395114
0.5276668 1.6575089 0.8047403 1.1065477 -1.0358343 -0.43759835 -0.47124428 1.3120508
-0.825654 -0.865303 -0.49022543 0.97599876 -1.0618732 -0.6346284 -0.97952276 -0.1357522
0.94382155 -0.897457 0.84771174 -1.0165896 0.4134597 -1.3250335 -1.6167904 -0.7972784
-0.62214464 -0.86029005 1.2505864 -1.1488614 -1.0251069 0.7071005 0.9971118 -0.50415266
0.99711925 1.4275097 -1.3380277 -1.0263573 1.4174633 -0.85811764 1.1565367 0.9945466
