rl_agents/model/vpg_model.pth (torch, 11599 bytes, 8 tensors)

linear1.weight f4 [32, 4]
0	0xbe8d9ef1	-0.27660325
1	0xbe8899ce	-0.26679844
2	0x3ee8fde7	0.45506212
3	0xbe5bd50a	-0.21467987
4	0xbe80ed5c	-0.2518109
5	0x3e956da7	0.2918522
6	0xbe4556c1	-0.19271375
7	0x3eb70fe4	0.3575431
8	0x3e97bc2e	0.29635757
9	0x3e2ed77c	0.17074388
10	0x3e78a137	0.24280249
11	0x3e96d97c	0.29462802
12	0x3eb4bb78	0.35299277
13	0x3d8352db	0.06412288
14	0xbe3e0d4a	-0.18559757
15	0x3f11d901	0.56971747
16	0x3ec1f172	0.3787952
17	0xbcfb0ef6	-0.030646782
18	0xbeeda657	-0.4641597
19	0xbe9c1567	-0.3048508
20	0xbed8ff58	-0.42382312
21	0x3ec85e97	0.39134666
22	0x3de81910	0.11332905
23	0x3ed76014	0.4206549
24	0x3e2d7b1b	0.16941492
25	0xbdb5cb73	-0.088766955
26	0xbe1b54df	-0.15169095
27	0x3e9475b4	0.2899605
28	0xbea476e9	-0.3212197
29	0xbe1ce085	-0.15320022
30	0x3e1dcd87	0.15410434
31	0xbeb31c2b	-0.34982428
32	0xbc49a920	-0.012308389
33	0xbc7e302f	-0.015514418
34	0x3e4c10c6	0.19928274
35	0x3f0deab3	0.5543625
36	0x3ea2bb36	0.31783456
37	0xbe4bdf2e	-0.19909355
38	0x3e87185f	0.2638578
39	0xbe8ce12b	-0.2751554
40	0x3e55c989	0.20877661
41	0x3e250e28	0.16118681
42	0xbe441c5d	-0.19151445
43	0xbf11515e	-0.5676478
44	0x3ed84ed0	0.4224763
45	0xbe49dc6a	-0.19712988
46	0x3e77d2ca	0.24201503
47	0xbea3e473	-0.3201023
48	0xbd0d0b9b	-0.034434896
49	0x3ed3a7e3	0.41339025
50	0xbf18514b	-0.59499043
51	0xbdb9be2f	-0.09069478
52	0xbd393f47	-0.04522636
53	0xbf049fbf	-0.51806253
54	0xbe48da51	-0.19614531
55	0xbed52883	-0.4163247
56	0x3de2cacb	0.11073836
57	0x3dc3047f	0.09522342
58	0x3ee47baa	0.44625598
59	0x3e0bf5b6	0.1366795
60	0xbe5b73ba	-0.21430865
61	0xbe2251f7	-0.1585158
62	0xbc64a8f9	-0.013956302
63	0x3f01029d	0.5039461
64	0x3e193756	0.14962515
65	0xbefb9c6b	-0.49142775
66	0x3e62b0be	0.22137734
67	0x3d2cf8ba	0.04222939
68	0x3eb0fcb2	0.3456779
69	0xbe099ec7	-0.13439475
70	0x3f1ad920	0.60487556
71	0x3e8a7ab2	0.27046734
72	0xbedd7f45	-0.4326116
73	0x3e1d50bc	0.15362829
74	0xbd3ebf6c	-0.046569273
75	0x3e5b0adf	0.21390866
76	0xbee8ddd3	-0.45481738
77	0xbc9d43b5	-0.019197324
78	0x3efda18d	0.49537316
79	0x3e8da8a5	0.27667728
80	0x3e875803	0.26434335
81	0x3edb9cf9	0.42893198
82	0x3dc02248	0.09381539
83	0x3dbc426e	0.09192358
84	0x3dc1835b	0.09448882
85	0xbc9d8b5a	-0.019231487
86	0x3e9bac8b	0.30405077
87	0xbe270ddf	-0.16313885
88	0x3d45c7c8	0.04828623
89	0x3cd9042e	0.02649125
90	0x3d003140	0.03129697
91	0x3ef34f6c	0.47521532
92	0x3d47f4a7	0.048817303
93	0xbee718a0	-0.45135975
94	0x3e351a71	0.17685868
95	0xbe7d63b9	-0.24745072
96	0x3d908df0	0.070583224
97	0xbeecbb29	-0.46236542
98	0x3cca40ec	0.02468916
99	0xbeeba9c0	-0.46027946
100	0xbd5161b1	-0.051118556
101	0x3efb22ac	0.4904989
102	0x3e89bb44	0.26900685
103	0x3ef1fc14	0.47262633
104	0xbe8d7d41	-0.27634624
105	0xbf0639e7	-0.524321
106	0xbf00b9b8	-0.50283384
107	0xbe26c900	-0.16287613
108	0xbe35cfe6	-0.17755088
109	0xbba310eb	-0.004976382
110	0x3eebed12	0.46079308
111	0x3f0a1417	0.53936905
112	0xbf02b16c	-0.51051974
113	0xbe8f5f35	-0.28002325
114	0x3f18cfc4	0.59692025
115	0x3d087c10	0.03332144
116	0xbdee435d	-0.11633942
117	0xbf0423b3	-0.5161697
118	0xbe7a0c2c	-0.24418706
119	0xbf085608	-0.53256273
120	0x3ee004b8	0.437536
121	0xbe71cba3	-0.23612837
122	0xbd184acb	-0.037180703
123	0x3e5c4102	0.21509174
124	0x3e7a1213	0.24420957
125	0x3ed26986	0.41096133
126	0xbe7ac0d3	-0.24487619
127	0xbef5ed27	-0.48032495

linear1.bias f4 [32]
0	0x3eed2b89	0.46322277
1	0xbdd4ba75	-0.10387126
2	0x3e31e270	0.17371535
3	0xbec15062	-0.3775664
4	0xbe9449ae	-0.28962463
5	0xbd510e65	-0.05103912
6	0xbe234116	-0.15942797
7	0x3cc8b45b	0.024500063
8	0x3e2754c1	0.16340925
9	0x3d2dba24	0.042413846
10	0xbe514a5e	-0.20438525
11	0xbb8d327e	-0.0043089977
12	0x3eb7130c	0.3575672
13	0x3ee1da5c	0.44111907
14	0x3eef343b	0.46719536
15	0x3eb2bf56	0.34911603
16	0x3e88bb16	0.26705235
17	0x3ef7c34a	0.4839118
18	0xbecef789	-0.4042323
19	0xbeddfdd4	-0.43357718
20	0x3eaf1c27	0.34201166
21	0x3f02dc5d	0.511175
22	0xbeac7d16	-0.33689183
23	0x3e7044ba	0.23463717
24	0xbe8668bf	-0.2625179
25	0xbe02f912	-0.12790325
26	0x3ee87af2	0.454063
27	0xbe924556	-0.28568524
28	0x3e6a8d21	0.22905399
29	0x3eaa3009	0.33239773
30	0x3e8fdfd1	0.28100446
31	0xbea9bf47	-0.33153746

linear2.weight f4 [32, 32]
0	0x3dc1ee28	0.09469253
1	0xbe869d03	-0.26291665
2	0xbe00c167	-0.12573777
3	0xbe239c86	-0.15977678
4	0x3e0e94c3	0.13923936
5	0xbde70704	-0.11280635
6	0x3e01bfd1	0.12670828
7	0x3e48e42c	0.1961829
8	0xbdec079f	-0.11524891
9	0x3e8d4e3d	0.27598754
10	0xbd9d6bda	-0.07686587
11	0x3d5c8ae3	0.05384339
12	0xbc44f3f2	-0.012021052
13	0x3e0dd5d4	0.138511
14	0xbd819c16	-0.06328599
15	0xbe156040	-0.14587498
16	0x3e141058	0.1445936
17	0x3e1c1661	0.15242912
18	0x3d6b2ddf	0.057416793
19	0x3d3371b2	0.0438096
20	0xbd6931a9	-0.056932125
21	0xbd0636a5	-0.032766957
22	0xbe5d9dad	-0.2164218
23	0x3d7640e7	0.06012049
24	0x3e1e16e0	0.15438414
25	0xbd18fb38	-0.037348956
26	0x3e4fc338	0.20289314
27	0xbe603974	-0.21896917
28	0xbe15e9dc	-0.14639992
29	0x3e267858	0.16256845
30	0x3e4b3773	0.19845371
31	0xbd5b9bfe	-0.053615563
32	0x3d6cb480	0.057789326
33	0x3de88368	0.11353189
34	0x3e56947f	0.20955084
35	0x3d347f30	0.044066608
36	0xbe7720cd	-0.24133606
37	0x3ddd317f	0.10800456
38	0x3dc2e797	0.095168285
39	0xbdfbfcc6	-0.12304072
40	0xbc8019c8	-0.015637293
41	0xbe32103d	-0.17389007
42	0xbe18e503	-0.14931111
43	0x3d1b76ec	0.03795521
44	0x3d8391ff	0.06424331
45	0x3df548f5	0.11976806
46	0x3dbac70e	0.09119998
47	0x3e40aa73	0.18815021
48	0x3d5bdb58	0.05367598
49	0x3e4ec86d	0.20193644
50	0x3dfd4e28	0.12368423
51	0xbe281a63	-0.16416316
52	0xbd35963f	-0.04433274
53	0xbc27fb57	-0.010252795
54	0x3c2d20c6	0.010566896
55	0xbd33fc0f	-0.043941554
56	0xbe8a66e5	-0.27031627
57	0x3dffa487	0.12482553
58	0x3e042e5a	0.12908307
59	0xbda9f96d	-0.08299527
60	0x3dafc19b	0.08581849
61	0xbe197a5a	-0.1498808
62	0x3e1c1387	0.15241824
63	0xbdc547f1	-0.09632862
64	0x3e0fe75b	0.14053099
65	0x3e197731	0.14986874
66	0xbc958df1	-0.01825616
67	0x3e309a54	0.17246372
68	0xbe6e95ca	-0.23299327
69	0x3ddce90f	0.1078664
70	0x3dd5115d	0.104037024
71	0xbd06d40d	-0.03291707
72	0xbd1863ea	-0.03720466
73	0xbd05a43f	-0.03262734
74	0xbe13b324	-0.14423805
75	0xbde06e81	-0.10958577
76	0xbdfbc540	-0.12293482
77	0x3d12bcfb	0.035824757
78	0x3e526c3d	0.20549102
79	0x3e10288c	0.14077967
80	0x3db362fd	0.08759115
81	0xbd17073a	-0.036872126
82	0xbe00ca9c	-0.1257729
83	0x3bcc8b89	0.00624222
84	0x3e089e19	0.1334156
85	0xbd855682	-0.06510641
86	0xbe174402	-0.14772037
87	0xbbd4a8eb	-0.006489863
88	0xbe1aa24c	-0.15100974
89	0x3e35ba2a	0.17746797
90	0x3c3691c0	0.011143148
91	0xbd87a927	-0.0662406
92	0xbc91fc37	-0.01782046
93	0xbda7d888	-0.08195597
94	0xbdcbacec	-0.099450916
95	0x3d3be6cb	0.0458744
96	0x3e1ab406	0.15107736
97	0xbe48f4d2	-0.19624642
98	0x3d3efbbb	0.046626788
99	0xbde6b581	-0.11265088
100	0x3d0e117b	0.03468464
101	0xbe6edf83	-0.2332745
102	0xbddb3a34	-0.10704461
103	0xbdd9a59d	-0.10627291
104	0x3d5fb254	0.054613426
105	0xbd89cc4f	-0.06728422
106	0xbd5e43d5	-0.05426391
107	0x3e039446	0.1284953
108	0xbd813b1b	-0.063101016
109	0x3e4ca26f	0.19983838
110	0x3daaef69	0.08346445
111	0x3db1c5ea	0.08680327
112	0x3e06bbeb	0.13157623
113	0xbd9ae5fb	-0.075633965
114	0xbd47b96b	-0.048760813
115	0x3cb23ee0	0.021758497
116	0xbdface9e	-0.1224644
117	0x3e0de69f	0.13857506
118	0xbe033963	-0.1281486
119	0x3d0e9275	0.03480764
120	0xbd35cd3c	-0.04438518
121	0xbe19d4a1	-0.15022518
122	0x3e5a218b	0.21301858
123	0x3e10847c	0.14113039
124	0xbd9b89a7	-0.075946145
125	0x3e00cc76	0.12577996
126	0x3d290558	0.04126486
127	0xbd8bf89b	-0.06834527
128	0xbdb0c313	-0.086309575
129	0xbc82b58c	-0.015955709
130	0x3d9bde42	0.07610752
131	0x3da69cfa	0.0813541
132	0x3be85a20	0.007090822
133	0xbe02e88f	-0.12784027
134	0x3d4a96aa	0.04946009
135	0x3dc54820	0.096328974
136	0xbb65d3d5	-0.0035068889
137	0x3dae261f	0.08503365
138	0xbdc8bb09	-0.09801299
139	0xbc937d01	-0.018003942
140	0x3dd6c941	0.10487605
141	0xbdbc7ff8	-0.092040956
142	0xbd83c93b	-0.06434866
143	0xbb48cd4a	-0.003063994
144	0xbe323b9e	-0.17405555
145	0x3d96b5a6	0.073588654
146	0xbdfbb2b9	-0.12289948
147	0x3cc18c91	0.023626598
148	0xbe1811d5	-0.14850552
149	0xbdbb5230	-0.091465354
150	0xbde076a0	-0.10960126
151	0x3e2a105a	0.166078
152	0x3cfe5921	0.03104836
153	0xbdfc9431	-0.12332953
154	0x3e208dab	0.15679042
155	0xbdd5aef9	-0.10433764
156	0xbdb9c99f	-0.09071659
157	0x3c4993e2	0.012303324
158	0xbe27f389	-0.16401495
159	0x3c611034	0.013736773
160	0x3ddcc716	0.1078016
161	0x3e65ec74	0.22453481
162	0xbd640896	-0.05567225
163	0x3e0dec00	0.13859558
164	0xbe310a49	-0.1728908
165	0x3e04ca7c	0.12967867
166	0x3dacc88a	0.08436687
167	0xbbf6bc09	-0.0075297398
168	0x3e432153	0.19055681
169	0x3e099cb5	0.13438685
170	0xbdfd2cee	-0.12362085
171	0xbe316ded	-0.1732709
172	0x3e23dab6	0.160014
173	0x3d047472	0.032337613
174	0xbd98d286	-0.07462029
175	0x3c415574	0.011800159
176	0x3bc1d48e	0.005915231
177	0x3df682fe	0.120367035
178	0xbca46bdb	-0.02007096
179	0xbd2ed064	-0.042679206
180	0x3d74b2bd	0.05974077
181	0xbdddf1dc	-0.10837147
182	0xbd88e22b	-0.06683763
183	0xbe4a9182	-0.1978207
184	0xbd5e3255	-0.05424722
185	0x3dc058a2	0.09391905
186	0x3e105d20	0.14098024
187	0xbd0cddd1	-0.034391228
188	0xbcf31fe8	-0.0296783
189	0xbe135d3e	-0.14391038
190	0xbe2af652	-0.16695526
191	0xbe3647f5	-0.17800887
192	0x3ad02770	0.0015880894
193	0x3dc11bf8	0.09429163
194	0xbd9550df	-0.072908156
195	0x3dfa87bb	0.1223292
196	0x3d5d76b5	0.054068286
197	0xbdd49c74	-0.103814036
198	0x3e041f6f	0.12902616
199	0xbdc18a22	-0.09450175
200	0x3cfe943e	0.031076547
201	0x3e1dddcb	0.15416639
202	0x3d11e18e	0.035615496
203	0x3d5d1a75	0.05398031
204	0xbdd6ec99	-0.10494346
205	0xbc99faf7	-0.018796427
206	0xbe2e91e8	-0.17047846
207	0x3e015158	0.12628686
208	0x3d884c7e	0.06655215
209	0xbd8c1fda	-0.06842013
210	0xbe056efd	-0.1303062
211	0xbcf8e701	-0.030383589
212	0x3d8f942a	0.07010682
213	0x3ddd7caf	0.10814797
214	0xbc2b64cf	-0.010461046
215	0xbdf02315	-0.11725441
216	0xbe179a9e	-0.14805076
217	0x3e0ac221	0.13550617
218	0x3d011b22	0.031520016
219	0x3d75bac3	0.059992563
220	0xbdf12938	-0.1177544
221	0xbdb10d71	-0.08645142
222	0xbe3b3e14	-0.182854
223	0x3dd71e45	0.1050382
224	0xbe095988	-0.1341306
225	0xbe17f5f3	-0.14839916
226	0x3df827b2	0.12116946
227	0xbe22c1fa	-0.15894309
228	0x3dec57a5	0.11540154
229	0xbe42fdbf	-0.19042109
230	0x3dd70344	0.1049867
231	0xbd420a2a	-0.047372974
232	0x3d9edfe8	0.077575505
233	0x3da46476	0.08026974
234	0xbde3cce2	-0.11123063
235	0xbda337e1	-0.079696424
236	0x3e2ae33d	0.16688247
237	0x3e124636	0.14284596
238	0x3e443c36	0.19163594
239	0x3e37075f	0.17873906
240	0xbcafcd04	-0.021460064
241	0x3e35fa17	0.17771183
242	0xbdd38fc8	-0.103301585
243	0xbdbc2d4a	-0.09188326
244	0xbb2f967e	-0.0026792581
245	0xbc913945	-0.017727504
246	0x3b8c899b	0.004288865
247	0x3e5cdfb6	0.21569714
248	0xbd6071b9	-0.054795954
249	0x3c0de9a7	0.008661664
250	0xbd6c589b	-0.05770169
251	0xbe048398	-0.12940824
252	0x3e4434af	0.19160722
253	0x3da321c0	0.07965422
254	0x3e60b203	0.21942906
255	0x3bc762e5	0.006084787

linear2.bias f4 [32]
0	0xbe133035	-0.14373858
1	0xbdba50a3	-0.090974115
2	0x3e43881f	0.19094895
3	0x3da717f1	0.08158863
4	0xbe334612	-0.17507198
5	0x3b1bd3c9	0.0023777357
6	0xbdf06bb2	-0.11739291
7	0x3d8f2cb0	0.06990945
8	0x3e1db500	0.15401077
9	0x3da9abb3	0.08284702
10	0x3de02e4c	0.109463304
11	0xbd532784	-0.051551357
12	0x3d5a48ac	0.05329196
13	0xbd84d386	-0.064856574
14	0xbe3519ba	-0.17685595
15	0xbd15a65c	-0.036535606
16	0xbd3a98bf	-0.045555826
17	0x3e0c95ee	0.13729069
18	0xbda8a938	-0.08235401
19	0x3e5b6131	0.21423794
20	0x3e1df37d	0.15424915
21	0x3c2fc506	0.010728126
22	0x3d940df8	0.07229227
23	0x3de9cc71	0.11415947
24	0xbe34f55a	-0.17671719
25	0x3e0ee6b6	0.13955197
26	0xbcfde717	-0.030993981
27	0xbc89865b	-0.016787698
28	0xbdd3b5fb	-0.103374444
29	0xbd628000	-0.05529785
30	0xbe10edf2	-0.14153269
31	0xbd52bfac	-0.051452324

linear3.weight f4 [32, 32]
0	0x3e462542	0.1935015
1	0x3c913f51	0.017730387
2	0x3e2bc278	0.16773403
3	0x3e392bfc	0.18083185
4	0x3de4355c	0.1114299
5	0x3dacfd31	0.0844673
6	0x3d6e0a19	0.0581151
7	0x3ca5bbf8	0.020231232
8	0x3ddd0b06	0.10793118
9	0x3db8fc77	0.09032529
10	0x3d96f9ad	0.073718406
11	0x3db3fdd9	0.08788652
12	0xbd2dcf61	-0.0424341
13	0x3e2a6c5d	0.166429
14	0xbdf60f53	-0.120146416
15	0xbe1c5a97	-0.15268932
16	0xbdb7fa5a	-0.08983298
17	0xbe4ff430	-0.20307994
18	0x3d7a855e	0.061162345
19	0xbe763a91	-0.24045779
20	0xbe0537a0	-0.130095
21	0xbe670f30	-0.22564387
22	0x3e065f63	0.13122325
23	0xbe3a6ba6	-0.18205127
24	0xbcdd7c19	-0.027036713
25	0x3cecb0b4	0.028892852
26	0x3ddc3885	0.10752968
27	0x3e87f7b2	0.26556164
28	0x3b40cebc	0.0029420098
29	0xbe315c14	-0.17320281
30	0x3d8312b7	0.06400054
31	0xbdeae6b6	-0.11469786
32	0x3da923ac	0.08258757
33	0xbdb934d9	-0.09043283
34	0x3db630ee	0.08896051
35	0x3d6f0e26	0.058363102
36	0xbdc892fe	-0.097936615
37	0xbe61e4b4	-0.220599
38	0xbdf0a25e	-0.11749719
39	0x3e1d702d	0.15374823
40	0x3e6cb993	0.23117666
41	0x3da03e2e	0.0782436
42	0x3e02c943	0.12772088
43	0xbd9f82ec	-0.07788643
44	0xbd495f0e	-0.049162917
45	0x3c0e28a5	0.008676683
46	0xbdaaa88a	-0.083329275
47	0x3e345e22	0.17614034
48	0x3d7c2094	0.061554506
49	0x3d8a3b21	0.06749559
50	0xbdff1ff9	-0.1245727
51	0xbd33ea67	-0.043924715
52	0xbddee922	-0.1088431
53	0xbe2037d4	-0.15646297
54	0xbdc291d9	-0.095004745
55	0xbe20d576	-0.15706429
56	0x3dac034f	0.083990686
57	0xbe0695d9	-0.131431
58	0xbe42ada3	-0.1901155
59	0x3dc0b481	0.094094284
60	0xbdaff1ed	-0.085910656
61	0xbc36b539	-0.011151605
62	0xbc19ccdc	-0.009387221
63	0x3dde1a33	0.10844841
64	0x3da3f3e2	0.08005501
65	0xbe04e8a9	-0.12979378
66	0xbd966223	-0.07342937
67	0xbdcb4f0b	-0.099271856
68	0x3c96003e	0.018310662
69	0x3e0f9a6a	0.14023748
70	0xbdd04fb4	-0.10171452
71	0x3dd0d2f5	0.10196487
72	0xbcf93398	-0.03042011
73	0x3e37152a	0.17879167
74	0xbe235dd1	-0.15953757
75	0x3e237fe7	0.1596676
76	0x3cdee095	0.027206698
77	0x3ddc7f35	0.1076645
78	0xbe0f0d61	-0.13969947
79	0xbe2f088a	-0.17093101
80	0x3d1bbeac	0.038023636
81	0x3e1dec9c	0.1542229
82	0xbd82c03d	-0.06384323
83	0xbdd95209	-0.1061135
84	0xbe18cc1d	-0.14921613
85	0xbe353ae7	-0.1769825
86	0xbc9a16a2	-0.01880962
87	0x3d830427	0.06397276
88	0xbdf5e4b9	-0.12006516
89	0x3d5a9751	0.053366963
90	0x3d813c80	0.063103676
91	0x3db508dc	0.088395804
92	0x3e06d530	0.13167262
93	0xbd4c5749	-0.04988793
94	0x3dce277e	0.10066126
95	0x3cf00393	0.02929858
96	0xbde68d2b	-0.112573944
97	0x3e18c140	0.14917469
98	0x3e52f024	0.20599419
99	0xbdaa0664	-0.08302
100	0xbc762d0d	-0.015025389
101	0x3e12d5d1	0.14339377
102	0x3855962c	5.0923016e-05
103	0x3cf722ab	0.030167898
104	0xbdf0243e	-0.11725663
105	0x3c105dc8	0.008811422
106	0xbdeb9281	-0.11502553
107	0xbd5991d4	-0.05311759
108	0x3d840f3b	0.064482175
109	0x3e1866bc	0.1488294
110	0xbda2e549	-0.07953889
111	0xbd03ab52	-0.032145806
112	0xbd78d3c4	-0.06074883
113	0x3e2af5e2	0.1669536
114	0xbd4033fe	-0.046924584
115	0x3e13c5e9	0.14430965
116	0x3dc8c20f	0.09802639
117	0xbdee703f	-0.11642503
118	0xbd40bc1c	-0.047054395
119	0xbca3662a	-0.019946177
120	0x3cd0021b	0.025391629
121	0xbc95ba0b	-0.018277189
122	0x3dfa8422	0.122322336
123	0xbd8f8a6a	-0.07008822
124	0xbdabc5af	-0.083873145
125	0xbdc770ea	-0.097383335
126	0x3cf1f0fc	0.029533856
127	0x3d22bfbd	0.039733637
128	0x3df76689	0.12080104
129	0x3cdd12d4	0.026986517
130	0xbe2a3fd0	-0.16625905
131	0x3d92e451	0.07172454
132	0x3de506d4	0.11182943
133	0xbe2a8f1a	-0.16656151
134	0x3e02d036	0.12774739
135	0xbd78a3bd	-0.060703028
136	0x3d201c8c	0.039089724
137	0x3e4ad53a	0.19807902
138	0x3c89b329	0.016809063
139	0xbe0a32ec	-0.13495988
140	0xbe441fca	-0.19152752
141	0x3db2b579	0.087260194
142	0x3df37fbe	0.11889599
143	0x3db63cea	0.08898337
144	0x3d484d8a	0.048902072
145	0xbe2bd7e4	-0.16781574
146	0x3d37856d	0.04480498
147	0x3b06bfed	0.0020561174
148	0xbda960ad	-0.082703926
149	0x3db45583	0.088053726
150	0x3ddea3bb	0.10871073
151	0x3d2f7204	0.042833343
152	0x3c0521c8	0.00812573
153	0xbe1e3d21	-0.15453006
154	0x3dcca481	0.09992314
155	0x3e80fd3a	0.25193197
156	0xbc763318	-0.01502683
157	0x3e012610	0.12612176
158	0xbddf6bde	-0.10909246
159	0x3c843ca2	0.016142193
160	0xbbff0e70	-0.0077837035
161	0x3e0e1b2f	0.13877557
162	0xbe261920	-0.16220522
163	0x3e07ef65	0.13274916
164	0x3d2a93d3	0.041644882
165	0xbe1f0d0e	-0.15532324
166	0x3d8e7d46	0.06957488
167	0xbe2b8afa	-0.16752234
168	0xbe234f6f	-0.1594827
169	0xbddd5587	-0.10807329
170	0xbe2f453f	-0.17116259
171	0xbdd7ced4	-0.10537496
172	0xbdab4041	-0.08361865
173	0xbe0979d5	-0.13425381
174	0xbd82df3d	-0.063902356
175	0xbdd48474	-0.10376826
176	0xbd561af9	-0.052271817
177	0x3d88cf53	0.06680169
178	0x3dfcbec5	0.12341074
179	0x3dcbe3ec	0.09955582
180	0xbd02b884	-0.03191425
181	0xbe1687da	-0.14700261
182	0x3ded30c8	0.1158157
183	0x3d358c56	0.044323288
184	0xbdf829e4	-0.12117365
185	0xbdde920a	-0.108676985
186	0xbda5a96e	-0.08088957
187	0xbc0b66ce	-0.008508397
188	0xbda3a761	-0.07990909
189	0xbda9060c	-0.082531065
190	0xbd4bd124	-0.04976
191	0x3e03a03b	0.12854092
192	0xbdfb6376	-0.1227483
193	0x3e7ed4e0	0.24885893
194	0x3d64fd1d	0.05590545
195	0xbda8ce43	-0.08242466
196	0x3def1610	0.1167413
197	0x3db47be4	0.08812693
198	0x3d1f14bd	0.038838137
199	0x3decc754	0.11561456
200	0xbd51537d	-0.05110501
201	0x3d99b759	0.07505674
202	0x3d6ec3ce	0.058292203
203	0x3c9d5c47	0.01920904
204	0x3e182a2b	0.14859836
205	0x3c690127	0.014221466
206	0x3db80dcb	0.08987006
207	0x3ccb52a2	0.024819676
208	0x3e5e25ea	0.2169415
209	0x3dd1d9f7	0.102466516
210	0x3e2bcc6a	0.16777197
211	0x3de4bb8b	0.111685835
212	0x3d92ff79	0.07177634
213	0x3e925517	0.28580543
214	0xbe275301	-0.16340257
215	0x3e78a4fa	0.24281684
216	0xbda53dd2	-0.08068432
217	0x3e7cbd77	0.2468165
218	0x3da3c626	0.07996778
219	0xbe3c5768	-0.18392718
220	0x3e1a91c9	0.15094675
221	0xbde4749d	-0.11155055
222	0x3e450cdc	0.19243187
223	0x3da26dce	0.079311
224	0x3e478820	0.19485521
225	0xbd36c36a	-0.044619955
226	0xbba252b4	-0.0049537066
227	0x3e1546ee	0.14577839
228	0xbd5707f6	-0.052497827
229	0xbe3abe56	-0.1823667
230	0x3d976649	0.07392556
231	0x3d8ae58b	0.06782063
232	0x3e390eea	0.18072096
233	0x3dfc8c51	0.12331451
234	0xbd3eb735	-0.04656144
235	0x3e0412a4	0.12897736
236	0xbd928973	-0.071551226
237	0xbcec2e96	-0.028830808
238	0x3d09faac	0.033686325
239	0x3e23e0b1	0.16003682
240	0x3d181668	0.037130743
241	0xbc044be7	-0.008074737
242	0x3d35ae7d	0.044355858
243	0xbded28f2	-0.11580075
244	0x3e00a950	0.12564588
245	0xbdf55a7e	-0.11980151
246	0x3e62d6d3	0.22152261
247	0x3bf3fae6	0.007445681
248	0x3d98173c	0.074263066
249	0xbdfbe72d	-0.12299953
250	0x3e07b3ff	0.13252257
251	0xbd8ac275	-0.06775371
252	0xbd2582f4	-0.04040809
253	0xbdaccce3	-0.084375165
254	0xbd902e66	-0.070401
255	0x3de44a5e	0.11146997

linear3.bias f4 [32]
0	0x3e23fd3f	0.16014574
1	0xbcf0631a	-0.02934413
2	0xbda2e93a	-0.07954641
3	0x3de372ad	0.11105857
4	0x3dd0d4cc	0.10196838
5	0xb9eaccd1	-0.00044784558
6	0x3ceaefb1	0.028678747
7	0xbda09496	-0.078408405
8	0x3d85c5c5	0.06531862
9	0x3e10de91	0.14147402
10	0xbe3492c7	-0.17634116
11	0xbdd6c5b0	-0.10486925
12	0x3d94706a	0.07248004
13	0x3dc155d1	0.09440196
14	0x3d17dc4b	0.037075322
15	0xbdb87f4c	-0.09008655
16	0xbde6b844	-0.11265615
17	0x3c2cb982	0.010542275
18	0xbdacf141	-0.08444453
19	0x3dab429b	0.08362313
20	0xbe0a7bc5	-0.13523777
21	0x3dda7ade	0.10667966
22	0xbe07d8f9	-0.13266362
23	0x3de7e48c	0.11322889
24	0xbd9fba7a	-0.077992395
25	0x3dbad001	0.09121705
26	0xbd36e9c8	-0.044656545
27	0x3d936021	0.071960695
28	0xbc4d7ccd	-0.012541962
29	0x3db66029	0.0890506
30	0xbdcbb97a	-0.09947486
31	0xbe1f6265	-0.15564878

linear4.weight f4 [2, 32]
0	0x3e6141e4	0.21997792
1	0x3c96c70a	0.018405456
2	0x3e3aaa75	0.18229087
3	0xbe098310	-0.13428903
4	0x3e63c40d	0.22242756
5	0x3ccea2a1	0.025224032
6	0xbe8bbb6a	-0.27291423
7	0x3cdad977	0.026715023
8	0xbe904729	-0.2817929
9	0x3d4e0bfb	0.050304394
10	0xbda3674e	-0.07978688
11	0xbd193c6b	-0.037411135
12	0x3e84d056	0.25940198
13	0x3dd906a4	0.1059697
14	0xbe424ea2	-0.18975309
15	0x3c0654e0	0.008198947
16	0xbe174228	-0.1477133
17	0xbe3b74f6	-0.18306336
18	0x3e312a85	0.17301376
19	0xbe1d6b80	-0.15373039
20	0xbe35195b	-0.17685454
21	0xbde4839c	-0.11157915
22	0x3de9a9b2	0.1140932
23	0x3e4d74d6	0.200641
24	0x3e7d3182	0.24725917
25	0x3d9e4912	0.07728781
26	0x3dd641dd	0.10461781
27	0x3e836e00	0.2566986
28	0xbd14c235	-0.036318023
29	0xbb0dfcf4	-0.0021665664
30	0xbd201152	-0.039079018
31	0xbdab754c	-0.08371982
32	0x3d3d9abe	0.04629015
33	0xbe7cb5c1	-0.24678709
34	0xbdb2e1e0	-0.087344885
35	0xbc7e6147	-0.015526122
36	0xbe39b1f2	-0.18134287
37	0x3c126811	0.008935944
38	0x3e34118f	0.17584823
39	0xbe6e11e6	-0.23249015
40	0x3e795b27	0.24351178
41	0xbb054c50	-0.0020339675
42	0xbd7a33aa	-0.061084427
43	0xbd37a3ac	-0.044833824
44	0xbe6191cb	-0.22028272
45	0xbe2513b5	-0.16120799
46	0x3ddadf2f	0.106871
47	0xbde1b987	-0.11021715
48	0xbd0f9144	-0.035050645
49	0x3e42f686	0.19039354
50	0x3dc1eb55	0.09468714
51	0x3da2c878	0.07948393
52	0x3de073ed	0.10959611
53	0x3e450e39	0.19243707
54	0x3d11e5c6	0.03561952
55	0xbe5049c9	-0.20340647
56	0xbdc0ce04	-0.09414294
57	0xbde3fda5	-0.11132363
58	0xbc45978e	-0.012060059
59	0xbe83b266	-0.25722045
60	0x3db2035c	0.08692047
61	0xbd78c99c	-0.060739145
62	0x3d93b5a0	0.072123766
63	0xbc0106e1	-0.007875175

linear4.bias f4 [2]
0	0x3b23272c	0.0024895174
1	0x3df279e4	0.11839655
